{"format": "torch", "nodes": [{"name": "module", "id": 140428336005856, "class_name": "Net(\n  (backbone): Sequential(\n    (0): MobileNetV3(\n      (conv_stem): Conv2d(3, 16, kernel_size=(3, 3), stride=(2, 2), padding=(1, 1), bias=False)\n      (bn1): BatchNorm2d(16, eps=1e-05, momentum=0.1, affine=True, track_running_stats=True)\n      (act1): HardSwishMe()\n      (blocks): Sequential(\n        (0): Sequential(\n          (0): DepthwiseSeparableConv(\n            (conv_dw): Conv2d(16, 16, kernel_size=(3, 3), stride=(1, 1), padding=(1, 1), groups=16, bias=False)\n            (bn1): BatchNorm2d(16, eps=1e-05, momentum=0.1, affine=True, track_running_stats=True)\n            (act1): ReLU(inplace=True)\n            (conv_pw): Conv2d(16, 16, kernel_size=(1, 1), stride=(1, 1), bias=False)\n            (bn2): BatchNorm2d(16, eps=1e-05, momentum=0.1, affine=True, track_running_stats=True)\n            (act2): Identity()\n          )\n        )\n        (1): Sequential(\n          (0): InvertedResidual(\n            (conv_pw): Conv2d(16, 64, kernel_size=(1, 1), stride=(1, 1), bias=False)\n            (bn1): BatchNorm2d(64, eps=1e-05, momentum=0.1, affine=True, track_running_stats=True)\n            (act1): ReLU(inplace=True)\n            (conv_dw): Conv2d(64, 64, kernel_size=(3, 3), stride=(2, 2), padding=(1, 1), groups=64, bias=False)\n            (bn2): BatchNorm2d(64, eps=1e-05, momentum=0.1, affine=True, track_running_stats=True)\n            (act2): ReLU(inplace=True)\n            (conv_pwl): Conv2d(64, 24, kernel_size=(1, 1), stride=(1, 1), bias=False)\n            (bn3): BatchNorm2d(24, eps=1e-05, momentum=0.1, affine=True, track_running_stats=True)\n          )\n          (1): InvertedResidual(\n            (conv_pw): Conv2d(24, 72, kernel_size=(1, 1), stride=(1, 1), bias=False)\n            (bn1): BatchNorm2d(72, eps=1e-05, momentum=0.1, affine=True, track_running_stats=True)\n            (act1): ReLU(inplace=True)\n            (conv_dw): Conv2d(72, 72, kernel_size=(3, 3), stride=(1, 1), padding=(1, 1), groups=72, bias=False)\n            (bn2): BatchNorm2d(72, eps=1e-05, momentum=0.1, affine=True, track_running_stats=True)\n            (act2): ReLU(inplace=True)\n            (conv_pwl): Conv2d(72, 24, kernel_size=(1, 1), stride=(1, 1), bias=False)\n            (bn3): BatchNorm2d(24, eps=1e-05, momentum=0.1, affine=True, track_running_stats=True)\n          )\n        )\n        (2): Sequential(\n          (0): InvertedResidual(\n            (conv_pw): Conv2d(24, 72, kernel_size=(1, 1), stride=(1, 1), bias=False)\n            (bn1): BatchNorm2d(72, eps=1e-05, momentum=0.1, affine=True, track_running_stats=True)\n            (act1): ReLU(inplace=True)\n            (conv_dw): Conv2d(72, 72, kernel_size=(5, 5), stride=(2, 2), padding=(2, 2), groups=72, bias=False)\n            (bn2): BatchNorm2d(72, eps=1e-05, momentum=0.1, affine=True, track_running_stats=True)\n            (act2): ReLU(inplace=True)\n            (se): SqueezeExcite(\n              (conv_reduce): Conv2d(72, 24, kernel_size=(1, 1), stride=(1, 1))\n              (act1): ReLU(inplace=True)\n              (conv_expand): Conv2d(24, 72, kernel_size=(1, 1), stride=(1, 1))\n            )\n            (conv_pwl): Conv2d(72, 40, kernel_size=(1, 1), stride=(1, 1), bias=False)\n            (bn3): BatchNorm2d(40, eps=1e-05, momentum=0.1, affine=True, track_running_stats=True)\n          )\n          (1): InvertedResidual(\n            (conv_pw): Conv2d(40, 120, kernel_size=(1, 1), stride=(1, 1), bias=False)\n            (bn1): BatchNorm2d(120, eps=1e-05, momentum=0.1, affine=True, track_running_stats=True)\n            (act1): ReLU(inplace=True)\n            (conv_dw): Conv2d(120, 120, kernel_size=(5, 5), stride=(1, 1), padding=(2, 2), groups=120, bias=False)\n            (bn2): BatchNorm2d(120, eps=1e-05, momentum=0.1, affine=True, track_running_stats=True)\n            (act2): ReLU(inplace=True)\n            (se): SqueezeExcite(\n              (conv_reduce): Conv2d(120, 32, kernel_size=(1, 1), stride=(1, 1))\n              (act1): ReLU(inplace=True)\n              (conv_expand): Conv2d(32, 120, kernel_size=(1, 1), stride=(1, 1))\n            )\n            (conv_pwl): Conv2d(120, 40, kernel_size=(1, 1), stride=(1, 1), bias=False)\n            (bn3): BatchNorm2d(40, eps=1e-05, momentum=0.1, affine=True, track_running_stats=True)\n          )\n          (2): InvertedResidual(\n            (conv_pw): Conv2d(40, 120, kernel_size=(1, 1), stride=(1, 1), bias=False)\n            (bn1): BatchNorm2d(120, eps=1e-05, momentum=0.1, affine=True, track_running_stats=True)\n            (act1): ReLU(inplace=True)\n            (conv_dw): Conv2d(120, 120, kernel_size=(5, 5), stride=(1, 1), padding=(2, 2), groups=120, bias=False)\n            (bn2): BatchNorm2d(120, eps=1e-05, momentum=0.1, affine=True, track_running_stats=True)\n            (act2): ReLU(inplace=True)\n            (se): SqueezeExcite(\n              (conv_reduce): Conv2d(120, 32, kernel_size=(1, 1), stride=(1, 1))\n              (act1): ReLU(inplace=True)\n              (conv_expand): Conv2d(32, 120, kernel_size=(1, 1), stride=(1, 1))\n            )\n            (conv_pwl): Conv2d(120, 40, kernel_size=(1, 1), stride=(1, 1), bias=False)\n            (bn3): BatchNorm2d(40, eps=1e-05, momentum=0.1, affine=True, track_running_stats=True)\n          )\n        )\n        (3): Sequential(\n          (0): InvertedResidual(\n            (conv_pw): Conv2d(40, 240, kernel_size=(1, 1), stride=(1, 1), bias=False)\n            (bn1): BatchNorm2d(240, eps=1e-05, momentum=0.1, affine=True, track_running_stats=True)\n            (act1): HardSwishMe()\n            (conv_dw): Conv2d(240, 240, kernel_size=(3, 3), stride=(2, 2), padding=(1, 1), groups=240, bias=False)\n            (bn2): BatchNorm2d(240, eps=1e-05, momentum=0.1, affine=True, track_running_stats=True)\n            (act2): HardSwishMe()\n            (conv_pwl): Conv2d(240, 80, kernel_size=(1, 1), stride=(1, 1), bias=False)\n            (bn3): BatchNorm2d(80, eps=1e-05, momentum=0.1, affine=True, track_running_stats=True)\n          )\n          (1): InvertedResidual(\n            (conv_pw): Conv2d(80, 200, kernel_size=(1, 1), stride=(1, 1), bias=False)\n            (bn1): BatchNorm2d(200, eps=1e-05, momentum=0.1, affine=True, track_running_stats=True)\n            (act1): HardSwishMe()\n            (conv_dw): Conv2d(200, 200, kernel_size=(3, 3), stride=(1, 1), padding=(1, 1), groups=200, bias=False)\n            (bn2): BatchNorm2d(200, eps=1e-05, momentum=0.1, affine=True, track_running_stats=True)\n            (act2): HardSwishMe()\n            (conv_pwl): Conv2d(200, 80, kernel_size=(1, 1), stride=(1, 1), bias=False)\n            (bn3): BatchNorm2d(80, eps=1e-05, momentum=0.1, affine=True, track_running_stats=True)\n          )\n          (2): InvertedResidual(\n            (conv_pw): Conv2d(80, 184, kernel_size=(1, 1), stride=(1, 1), bias=False)\n            (bn1): BatchNorm2d(184, eps=1e-05, momentum=0.1, affine=True, track_running_stats=True)\n            (act1): HardSwishMe()\n            (conv_dw): Conv2d(184, 184, kernel_size=(3, 3), stride=(1, 1), padding=(1, 1), groups=184, bias=False)\n            (bn2): BatchNorm2d(184, eps=1e-05, momentum=0.1, affine=True, track_running_stats=True)\n            (act2): HardSwishMe()\n            (conv_pwl): Conv2d(184, 80, kernel_size=(1, 1), stride=(1, 1), bias=False)\n            (bn3): BatchNorm2d(80, eps=1e-05, momentum=0.1, affine=True, track_running_stats=True)\n          )\n          (3): InvertedResidual(\n            (conv_pw): Conv2d(80, 184, kernel_size=(1, 1), stride=(1, 1), bias=False)\n            (bn1): BatchNorm2d(184, eps=1e-05, momentum=0.1, affine=True, track_running_stats=True)\n            (act1): HardSwishMe()\n            (conv_dw): Conv2d(184, 184, kernel_size=(3, 3), stride=(1, 1), padding=(1, 1), groups=184, bias=False)\n            (bn2): BatchNorm2d(184, eps=1e-05, momentum=0.1, affine=True, track_running_stats=True)\n            (act2): HardSwishMe()\n            (conv_pwl): Conv2d(184, 80, kernel_size=(1, 1), stride=(1, 1), bias=False)\n            (bn3): BatchNorm2d(80, eps=1e-05, momentum=0.1, affine=True, track_running_stats=True)\n          )\n        )\n        (4): Sequential(\n          (0): InvertedResidual(\n            (conv_pw): Conv2d(80, 480, kernel_size=(1, 1), stride=(1, 1), bias=False)\n            (bn1): BatchNorm2d(480, eps=1e-05, momentum=0.1, affine=True, track_running_stats=True)\n            (act1): HardSwishMe()\n            (conv_dw): Conv2d(480, 480, kernel_size=(3, 3), stride=(1, 1), padding=(1, 1), groups=480, bias=False)\n            (bn2): BatchNorm2d(480, eps=1e-05, momentum=0.1, affine=True, track_running_stats=True)\n            (act2): HardSwishMe()\n            (se): SqueezeExcite(\n              (conv_reduce): Conv2d(480, 120, kernel_size=(1, 1), stride=(1, 1))\n              (act1): ReLU(inplace=True)\n              (conv_expand): Conv2d(120, 480, kernel_size=(1, 1), stride=(1, 1))\n            )\n            (conv_pwl): Conv2d(480, 112, kernel_size=(1, 1), stride=(1, 1), bias=False)\n            (bn3): BatchNorm2d(112, eps=1e-05, momentum=0.1, affine=True, track_running_stats=True)\n          )\n          (1): InvertedResidual(\n            (conv_pw): Conv2d(112, 672, kernel_size=(1, 1), stride=(1, 1), bias=False)\n            (bn1): BatchNorm2d(672, eps=1e-05, momentum=0.1, affine=True, track_running_stats=True)\n            (act1): HardSwishMe()\n            (conv_dw): Conv2d(672, 672, kernel_size=(3, 3), stride=(1, 1), padding=(1, 1), groups=672, bias=False)\n            (bn2): BatchNorm2d(672, eps=1e-05, momentum=0.1, affine=True, track_running_stats=True)\n            (act2): HardSwishMe()\n            (se): SqueezeExcite(\n              (conv_reduce): Conv2d(672, 168, kernel_size=(1, 1), stride=(1, 1))\n              (act1): ReLU(inplace=True)\n              (conv_expand): Conv2d(168, 672, kernel_size=(1, 1), stride=(1, 1))\n            )\n            (conv_pwl): Conv2d(672, 112, kernel_size=(1, 1), stride=(1, 1), bias=False)\n            (bn3): BatchNorm2d(112, eps=1e-05, momentum=0.1, affine=True, track_running_stats=True)\n          )\n        )\n        (5): Sequential(\n          (0): InvertedResidual(\n            (conv_pw): Conv2d(112, 672, kernel_size=(1, 1), stride=(1, 1), bias=False)\n            (bn1): BatchNorm2d(672, eps=1e-05, momentum=0.1, affine=True, track_running_stats=True)\n            (act1): HardSwishMe()\n            (conv_dw): Conv2d(672, 672, kernel_size=(5, 5), stride=(2, 2), padding=(2, 2), groups=672, bias=False)\n            (bn2): BatchNorm2d(672, eps=1e-05, momentum=0.1, affine=True, track_running_stats=True)\n            (act2): HardSwishMe()\n            (se): SqueezeExcite(\n              (conv_reduce): Conv2d(672, 168, kernel_size=(1, 1), stride=(1, 1))\n              (act1): ReLU(inplace=True)\n              (conv_expand): Conv2d(168, 672, kernel_size=(1, 1), stride=(1, 1))\n            )\n            (conv_pwl): Conv2d(672, 160, kernel_size=(1, 1), stride=(1, 1), bias=False)\n            (bn3): BatchNorm2d(160, eps=1e-05, momentum=0.1, affine=True, track_running_stats=True)\n          )\n          (1): InvertedResidual(\n            (conv_pw): Conv2d(160, 960, kernel_size=(1, 1), stride=(1, 1), bias=False)\n            (bn1): BatchNorm2d(960, eps=1e-05, momentum=0.1, affine=True, track_running_stats=True)\n            (act1): HardSwishMe()\n            (conv_dw): Conv2d(960, 960, kernel_size=(5, 5), stride=(1, 1), padding=(2, 2), groups=960, bias=False)\n            (bn2): BatchNorm2d(960, eps=1e-05, momentum=0.1, affine=True, track_running_stats=True)\n            (act2): HardSwishMe()\n            (se): SqueezeExcite(\n              (conv_reduce): Conv2d(960, 240, kernel_size=(1, 1), stride=(1, 1))\n              (act1): ReLU(inplace=True)\n              (conv_expand): Conv2d(240, 960, kernel_size=(1, 1), stride=(1, 1))\n            )\n            (conv_pwl): Conv2d(960, 160, kernel_size=(1, 1), stride=(1, 1), bias=False)\n            (bn3): BatchNorm2d(160, eps=1e-05, momentum=0.1, affine=True, track_running_stats=True)\n          )\n          (2): InvertedResidual(\n            (conv_pw): Conv2d(160, 960, kernel_size=(1, 1), stride=(1, 1), bias=False)\n            (bn1): BatchNorm2d(960, eps=1e-05, momentum=0.1, affine=True, track_running_stats=True)\n            (act1): HardSwishMe()\n            (conv_dw): Conv2d(960, 960, kernel_size=(5, 5), stride=(1, 1), padding=(2, 2), groups=960, bias=False)\n            (bn2): BatchNorm2d(960, eps=1e-05, momentum=0.1, affine=True, track_running_stats=True)\n            (act2): HardSwishMe()\n            (se): SqueezeExcite(\n              (conv_reduce): Conv2d(960, 240, kernel_size=(1, 1), stride=(1, 1))\n              (act1): ReLU(inplace=True)\n              (conv_expand): Conv2d(240, 960, kernel_size=(1, 1), stride=(1, 1))\n            )\n            (conv_pwl): Conv2d(960, 160, kernel_size=(1, 1), stride=(1, 1), bias=False)\n            (bn3): BatchNorm2d(160, eps=1e-05, momentum=0.1, affine=True, track_running_stats=True)\n          )\n        )\n        (6): Sequential(\n          (0): ConvBnAct(\n            (conv): Conv2d(160, 960, kernel_size=(1, 1), stride=(1, 1), bias=False)\n            (bn1): BatchNorm2d(960, eps=1e-05, momentum=0.1, affine=True, track_running_stats=True)\n            (act1): HardSwishMe()\n          )\n        )\n      )\n      (global_pool): SelectAdaptivePool2d (pool_type=avg, flatten=False)\n      (conv_head): Conv2d(960, 1280, kernel_size=(1, 1), stride=(1, 1))\n      (act2): HardSwishMe()\n      (classifier): Linear(in_features=1280, out_features=512, bias=True)\n    )\n    (1): BatchNorm1d(512, eps=1e-05, momentum=0.1, affine=True, track_running_stats=True)\n    (2): ReLU()\n  )\n  (gender_head): Sequential(\n    (0): Dropout(p=0.2, inplace=False)\n    (1): Linear(in_features=512, out_features=1, bias=True)\n    (2): Sigmoid()\n  )\n  (age_head): Sequential(\n    (0): Linear(in_features=512, out_features=116, bias=True)\n  )\n)", "parameters": [], "output_shape": [[16, 116], [16, 1]], "num_parameters": []}, {"name": "module", "id": 140428336005664, "class_name": "Net(\n  (backbone): Sequential(\n    (0): MobileNetV3(\n      (conv_stem): Conv2d(3, 16, kernel_size=(3, 3), stride=(2, 2), padding=(1, 1), bias=False)\n      (bn1): BatchNorm2d(16, eps=1e-05, momentum=0.1, affine=True, track_running_stats=True)\n      (act1): HardSwishMe()\n      (blocks): Sequential(\n        (0): Sequential(\n          (0): DepthwiseSeparableConv(\n            (conv_dw): Conv2d(16, 16, kernel_size=(3, 3), stride=(1, 1), padding=(1, 1), groups=16, bias=False)\n            (bn1): BatchNorm2d(16, eps=1e-05, momentum=0.1, affine=True, track_running_stats=True)\n            (act1): ReLU(inplace=True)\n            (conv_pw): Conv2d(16, 16, kernel_size=(1, 1), stride=(1, 1), bias=False)\n            (bn2): BatchNorm2d(16, eps=1e-05, momentum=0.1, affine=True, track_running_stats=True)\n            (act2): Identity()\n          )\n        )\n        (1): Sequential(\n          (0): InvertedResidual(\n            (conv_pw): Conv2d(16, 64, kernel_size=(1, 1), stride=(1, 1), bias=False)\n            (bn1): BatchNorm2d(64, eps=1e-05, momentum=0.1, affine=True, track_running_stats=True)\n            (act1): ReLU(inplace=True)\n            (conv_dw): Conv2d(64, 64, kernel_size=(3, 3), stride=(2, 2), padding=(1, 1), groups=64, bias=False)\n            (bn2): BatchNorm2d(64, eps=1e-05, momentum=0.1, affine=True, track_running_stats=True)\n            (act2): ReLU(inplace=True)\n            (conv_pwl): Conv2d(64, 24, kernel_size=(1, 1), stride=(1, 1), bias=False)\n            (bn3): BatchNorm2d(24, eps=1e-05, momentum=0.1, affine=True, track_running_stats=True)\n          )\n          (1): InvertedResidual(\n            (conv_pw): Conv2d(24, 72, kernel_size=(1, 1), stride=(1, 1), bias=False)\n            (bn1): BatchNorm2d(72, eps=1e-05, momentum=0.1, affine=True, track_running_stats=True)\n            (act1): ReLU(inplace=True)\n            (conv_dw): Conv2d(72, 72, kernel_size=(3, 3), stride=(1, 1), padding=(1, 1), groups=72, bias=False)\n            (bn2): BatchNorm2d(72, eps=1e-05, momentum=0.1, affine=True, track_running_stats=True)\n            (act2): ReLU(inplace=True)\n            (conv_pwl): Conv2d(72, 24, kernel_size=(1, 1), stride=(1, 1), bias=False)\n            (bn3): BatchNorm2d(24, eps=1e-05, momentum=0.1, affine=True, track_running_stats=True)\n          )\n        )\n        (2): Sequential(\n          (0): InvertedResidual(\n            (conv_pw): Conv2d(24, 72, kernel_size=(1, 1), stride=(1, 1), bias=False)\n            (bn1): BatchNorm2d(72, eps=1e-05, momentum=0.1, affine=True, track_running_stats=True)\n            (act1): ReLU(inplace=True)\n            (conv_dw): Conv2d(72, 72, kernel_size=(5, 5), stride=(2, 2), padding=(2, 2), groups=72, bias=False)\n            (bn2): BatchNorm2d(72, eps=1e-05, momentum=0.1, affine=True, track_running_stats=True)\n            (act2): ReLU(inplace=True)\n            (se): SqueezeExcite(\n              (conv_reduce): Conv2d(72, 24, kernel_size=(1, 1), stride=(1, 1))\n              (act1): ReLU(inplace=True)\n              (conv_expand): Conv2d(24, 72, kernel_size=(1, 1), stride=(1, 1))\n            )\n            (conv_pwl): Conv2d(72, 40, kernel_size=(1, 1), stride=(1, 1), bias=False)\n            (bn3): BatchNorm2d(40, eps=1e-05, momentum=0.1, affine=True, track_running_stats=True)\n          )\n          (1): InvertedResidual(\n            (conv_pw): Conv2d(40, 120, kernel_size=(1, 1), stride=(1, 1), bias=False)\n            (bn1): BatchNorm2d(120, eps=1e-05, momentum=0.1, affine=True, track_running_stats=True)\n            (act1): ReLU(inplace=True)\n            (conv_dw): Conv2d(120, 120, kernel_size=(5, 5), stride=(1, 1), padding=(2, 2), groups=120, bias=False)\n            (bn2): BatchNorm2d(120, eps=1e-05, momentum=0.1, affine=True, track_running_stats=True)\n            (act2): ReLU(inplace=True)\n            (se): SqueezeExcite(\n              (conv_reduce): Conv2d(120, 32, kernel_size=(1, 1), stride=(1, 1))\n              (act1): ReLU(inplace=True)\n              (conv_expand): Conv2d(32, 120, kernel_size=(1, 1), stride=(1, 1))\n            )\n            (conv_pwl): Conv2d(120, 40, kernel_size=(1, 1), stride=(1, 1), bias=False)\n            (bn3): BatchNorm2d(40, eps=1e-05, momentum=0.1, affine=True, track_running_stats=True)\n          )\n          (2): InvertedResidual(\n            (conv_pw): Conv2d(40, 120, kernel_size=(1, 1), stride=(1, 1), bias=False)\n            (bn1): BatchNorm2d(120, eps=1e-05, momentum=0.1, affine=True, track_running_stats=True)\n            (act1): ReLU(inplace=True)\n            (conv_dw): Conv2d(120, 120, kernel_size=(5, 5), stride=(1, 1), padding=(2, 2), groups=120, bias=False)\n            (bn2): BatchNorm2d(120, eps=1e-05, momentum=0.1, affine=True, track_running_stats=True)\n            (act2): ReLU(inplace=True)\n            (se): SqueezeExcite(\n              (conv_reduce): Conv2d(120, 32, kernel_size=(1, 1), stride=(1, 1))\n              (act1): ReLU(inplace=True)\n              (conv_expand): Conv2d(32, 120, kernel_size=(1, 1), stride=(1, 1))\n            )\n            (conv_pwl): Conv2d(120, 40, kernel_size=(1, 1), stride=(1, 1), bias=False)\n            (bn3): BatchNorm2d(40, eps=1e-05, momentum=0.1, affine=True, track_running_stats=True)\n          )\n        )\n        (3): Sequential(\n          (0): InvertedResidual(\n            (conv_pw): Conv2d(40, 240, kernel_size=(1, 1), stride=(1, 1), bias=False)\n            (bn1): BatchNorm2d(240, eps=1e-05, momentum=0.1, affine=True, track_running_stats=True)\n            (act1): HardSwishMe()\n            (conv_dw): Conv2d(240, 240, kernel_size=(3, 3), stride=(2, 2), padding=(1, 1), groups=240, bias=False)\n            (bn2): BatchNorm2d(240, eps=1e-05, momentum=0.1, affine=True, track_running_stats=True)\n            (act2): HardSwishMe()\n            (conv_pwl): Conv2d(240, 80, kernel_size=(1, 1), stride=(1, 1), bias=False)\n            (bn3): BatchNorm2d(80, eps=1e-05, momentum=0.1, affine=True, track_running_stats=True)\n          )\n          (1): InvertedResidual(\n            (conv_pw): Conv2d(80, 200, kernel_size=(1, 1), stride=(1, 1), bias=False)\n            (bn1): BatchNorm2d(200, eps=1e-05, momentum=0.1, affine=True, track_running_stats=True)\n            (act1): HardSwishMe()\n            (conv_dw): Conv2d(200, 200, kernel_size=(3, 3), stride=(1, 1), padding=(1, 1), groups=200, bias=False)\n            (bn2): BatchNorm2d(200, eps=1e-05, momentum=0.1, affine=True, track_running_stats=True)\n            (act2): HardSwishMe()\n            (conv_pwl): Conv2d(200, 80, kernel_size=(1, 1), stride=(1, 1), bias=False)\n            (bn3): BatchNorm2d(80, eps=1e-05, momentum=0.1, affine=True, track_running_stats=True)\n          )\n          (2): InvertedResidual(\n            (conv_pw): Conv2d(80, 184, kernel_size=(1, 1), stride=(1, 1), bias=False)\n            (bn1): BatchNorm2d(184, eps=1e-05, momentum=0.1, affine=True, track_running_stats=True)\n            (act1): HardSwishMe()\n            (conv_dw): Conv2d(184, 184, kernel_size=(3, 3), stride=(1, 1), padding=(1, 1), groups=184, bias=False)\n            (bn2): BatchNorm2d(184, eps=1e-05, momentum=0.1, affine=True, track_running_stats=True)\n            (act2): HardSwishMe()\n            (conv_pwl): Conv2d(184, 80, kernel_size=(1, 1), stride=(1, 1), bias=False)\n            (bn3): BatchNorm2d(80, eps=1e-05, momentum=0.1, affine=True, track_running_stats=True)\n          )\n          (3): InvertedResidual(\n            (conv_pw): Conv2d(80, 184, kernel_size=(1, 1), stride=(1, 1), bias=False)\n            (bn1): BatchNorm2d(184, eps=1e-05, momentum=0.1, affine=True, track_running_stats=True)\n            (act1): HardSwishMe()\n            (conv_dw): Conv2d(184, 184, kernel_size=(3, 3), stride=(1, 1), padding=(1, 1), groups=184, bias=False)\n            (bn2): BatchNorm2d(184, eps=1e-05, momentum=0.1, affine=True, track_running_stats=True)\n            (act2): HardSwishMe()\n            (conv_pwl): Conv2d(184, 80, kernel_size=(1, 1), stride=(1, 1), bias=False)\n            (bn3): BatchNorm2d(80, eps=1e-05, momentum=0.1, affine=True, track_running_stats=True)\n          )\n        )\n        (4): Sequential(\n          (0): InvertedResidual(\n            (conv_pw): Conv2d(80, 480, kernel_size=(1, 1), stride=(1, 1), bias=False)\n            (bn1): BatchNorm2d(480, eps=1e-05, momentum=0.1, affine=True, track_running_stats=True)\n            (act1): HardSwishMe()\n            (conv_dw): Conv2d(480, 480, kernel_size=(3, 3), stride=(1, 1), padding=(1, 1), groups=480, bias=False)\n            (bn2): BatchNorm2d(480, eps=1e-05, momentum=0.1, affine=True, track_running_stats=True)\n            (act2): HardSwishMe()\n            (se): SqueezeExcite(\n              (conv_reduce): Conv2d(480, 120, kernel_size=(1, 1), stride=(1, 1))\n              (act1): ReLU(inplace=True)\n              (conv_expand): Conv2d(120, 480, kernel_size=(1, 1), stride=(1, 1))\n            )\n            (conv_pwl): Conv2d(480, 112, kernel_size=(1, 1), stride=(1, 1), bias=False)\n            (bn3): BatchNorm2d(112, eps=1e-05, momentum=0.1, affine=True, track_running_stats=True)\n          )\n          (1): InvertedResidual(\n            (conv_pw): Conv2d(112, 672, kernel_size=(1, 1), stride=(1, 1), bias=False)\n            (bn1): BatchNorm2d(672, eps=1e-05, momentum=0.1, affine=True, track_running_stats=True)\n            (act1): HardSwishMe()\n            (conv_dw): Conv2d(672, 672, kernel_size=(3, 3), stride=(1, 1), padding=(1, 1), groups=672, bias=False)\n            (bn2): BatchNorm2d(672, eps=1e-05, momentum=0.1, affine=True, track_running_stats=True)\n            (act2): HardSwishMe()\n            (se): SqueezeExcite(\n              (conv_reduce): Conv2d(672, 168, kernel_size=(1, 1), stride=(1, 1))\n              (act1): ReLU(inplace=True)\n              (conv_expand): Conv2d(168, 672, kernel_size=(1, 1), stride=(1, 1))\n            )\n            (conv_pwl): Conv2d(672, 112, kernel_size=(1, 1), stride=(1, 1), bias=False)\n            (bn3): BatchNorm2d(112, eps=1e-05, momentum=0.1, affine=True, track_running_stats=True)\n          )\n        )\n        (5): Sequential(\n          (0): InvertedResidual(\n            (conv_pw): Conv2d(112, 672, kernel_size=(1, 1), stride=(1, 1), bias=False)\n            (bn1): BatchNorm2d(672, eps=1e-05, momentum=0.1, affine=True, track_running_stats=True)\n            (act1): HardSwishMe()\n            (conv_dw): Conv2d(672, 672, kernel_size=(5, 5), stride=(2, 2), padding=(2, 2), groups=672, bias=False)\n            (bn2): BatchNorm2d(672, eps=1e-05, momentum=0.1, affine=True, track_running_stats=True)\n            (act2): HardSwishMe()\n            (se): SqueezeExcite(\n              (conv_reduce): Conv2d(672, 168, kernel_size=(1, 1), stride=(1, 1))\n              (act1): ReLU(inplace=True)\n              (conv_expand): Conv2d(168, 672, kernel_size=(1, 1), stride=(1, 1))\n            )\n            (conv_pwl): Conv2d(672, 160, kernel_size=(1, 1), stride=(1, 1), bias=False)\n            (bn3): BatchNorm2d(160, eps=1e-05, momentum=0.1, affine=True, track_running_stats=True)\n          )\n          (1): InvertedResidual(\n            (conv_pw): Conv2d(160, 960, kernel_size=(1, 1), stride=(1, 1), bias=False)\n            (bn1): BatchNorm2d(960, eps=1e-05, momentum=0.1, affine=True, track_running_stats=True)\n            (act1): HardSwishMe()\n            (conv_dw): Conv2d(960, 960, kernel_size=(5, 5), stride=(1, 1), padding=(2, 2), groups=960, bias=False)\n            (bn2): BatchNorm2d(960, eps=1e-05, momentum=0.1, affine=True, track_running_stats=True)\n            (act2): HardSwishMe()\n            (se): SqueezeExcite(\n              (conv_reduce): Conv2d(960, 240, kernel_size=(1, 1), stride=(1, 1))\n              (act1): ReLU(inplace=True)\n              (conv_expand): Conv2d(240, 960, kernel_size=(1, 1), stride=(1, 1))\n            )\n            (conv_pwl): Conv2d(960, 160, kernel_size=(1, 1), stride=(1, 1), bias=False)\n            (bn3): BatchNorm2d(160, eps=1e-05, momentum=0.1, affine=True, track_running_stats=True)\n          )\n          (2): InvertedResidual(\n            (conv_pw): Conv2d(160, 960, kernel_size=(1, 1), stride=(1, 1), bias=False)\n            (bn1): BatchNorm2d(960, eps=1e-05, momentum=0.1, affine=True, track_running_stats=True)\n            (act1): HardSwishMe()\n            (conv_dw): Conv2d(960, 960, kernel_size=(5, 5), stride=(1, 1), padding=(2, 2), groups=960, bias=False)\n            (bn2): BatchNorm2d(960, eps=1e-05, momentum=0.1, affine=True, track_running_stats=True)\n            (act2): HardSwishMe()\n            (se): SqueezeExcite(\n              (conv_reduce): Conv2d(960, 240, kernel_size=(1, 1), stride=(1, 1))\n              (act1): ReLU(inplace=True)\n              (conv_expand): Conv2d(240, 960, kernel_size=(1, 1), stride=(1, 1))\n            )\n            (conv_pwl): Conv2d(960, 160, kernel_size=(1, 1), stride=(1, 1), bias=False)\n            (bn3): BatchNorm2d(160, eps=1e-05, momentum=0.1, affine=True, track_running_stats=True)\n          )\n        )\n        (6): Sequential(\n          (0): ConvBnAct(\n            (conv): Conv2d(160, 960, kernel_size=(1, 1), stride=(1, 1), bias=False)\n            (bn1): BatchNorm2d(960, eps=1e-05, momentum=0.1, affine=True, track_running_stats=True)\n            (act1): HardSwishMe()\n          )\n        )\n      )\n      (global_pool): SelectAdaptivePool2d (pool_type=avg, flatten=False)\n      (conv_head): Conv2d(960, 1280, kernel_size=(1, 1), stride=(1, 1))\n      (act2): HardSwishMe()\n      (classifier): Linear(in_features=1280, out_features=512, bias=True)\n    )\n    (1): BatchNorm1d(512, eps=1e-05, momentum=0.1, affine=True, track_running_stats=True)\n    (2): ReLU()\n  )\n  (gender_head): Sequential(\n    (0): Dropout(p=0.2, inplace=False)\n    (1): Linear(in_features=512, out_features=1, bias=True)\n    (2): Sigmoid()\n  )\n  (age_head): Sequential(\n    (0): Linear(in_features=512, out_features=116, bias=True)\n  )\n)", "parameters": [], "output_shape": [[16, 116], [16, 1]], "num_parameters": []}, {"name": "module", "id": 140428336006528, "class_name": "Net(\n  (backbone): Sequential(\n    (0): MobileNetV3(\n      (conv_stem): Conv2d(3, 16, kernel_size=(3, 3), stride=(2, 2), padding=(1, 1), bias=False)\n      (bn1): BatchNorm2d(16, eps=1e-05, momentum=0.1, affine=True, track_running_stats=True)\n      (act1): HardSwishMe()\n      (blocks): Sequential(\n        (0): Sequential(\n          (0): DepthwiseSeparableConv(\n            (conv_dw): Conv2d(16, 16, kernel_size=(3, 3), stride=(1, 1), padding=(1, 1), groups=16, bias=False)\n            (bn1): BatchNorm2d(16, eps=1e-05, momentum=0.1, affine=True, track_running_stats=True)\n            (act1): ReLU(inplace=True)\n            (conv_pw): Conv2d(16, 16, kernel_size=(1, 1), stride=(1, 1), bias=False)\n            (bn2): BatchNorm2d(16, eps=1e-05, momentum=0.1, affine=True, track_running_stats=True)\n            (act2): Identity()\n          )\n        )\n        (1): Sequential(\n          (0): InvertedResidual(\n            (conv_pw): Conv2d(16, 64, kernel_size=(1, 1), stride=(1, 1), bias=False)\n            (bn1): BatchNorm2d(64, eps=1e-05, momentum=0.1, affine=True, track_running_stats=True)\n            (act1): ReLU(inplace=True)\n            (conv_dw): Conv2d(64, 64, kernel_size=(3, 3), stride=(2, 2), padding=(1, 1), groups=64, bias=False)\n            (bn2): BatchNorm2d(64, eps=1e-05, momentum=0.1, affine=True, track_running_stats=True)\n            (act2): ReLU(inplace=True)\n            (conv_pwl): Conv2d(64, 24, kernel_size=(1, 1), stride=(1, 1), bias=False)\n            (bn3): BatchNorm2d(24, eps=1e-05, momentum=0.1, affine=True, track_running_stats=True)\n          )\n          (1): InvertedResidual(\n            (conv_pw): Conv2d(24, 72, kernel_size=(1, 1), stride=(1, 1), bias=False)\n            (bn1): BatchNorm2d(72, eps=1e-05, momentum=0.1, affine=True, track_running_stats=True)\n            (act1): ReLU(inplace=True)\n            (conv_dw): Conv2d(72, 72, kernel_size=(3, 3), stride=(1, 1), padding=(1, 1), groups=72, bias=False)\n            (bn2): BatchNorm2d(72, eps=1e-05, momentum=0.1, affine=True, track_running_stats=True)\n            (act2): ReLU(inplace=True)\n            (conv_pwl): Conv2d(72, 24, kernel_size=(1, 1), stride=(1, 1), bias=False)\n            (bn3): BatchNorm2d(24, eps=1e-05, momentum=0.1, affine=True, track_running_stats=True)\n          )\n        )\n        (2): Sequential(\n          (0): InvertedResidual(\n            (conv_pw): Conv2d(24, 72, kernel_size=(1, 1), stride=(1, 1), bias=False)\n            (bn1): BatchNorm2d(72, eps=1e-05, momentum=0.1, affine=True, track_running_stats=True)\n            (act1): ReLU(inplace=True)\n            (conv_dw): Conv2d(72, 72, kernel_size=(5, 5), stride=(2, 2), padding=(2, 2), groups=72, bias=False)\n            (bn2): BatchNorm2d(72, eps=1e-05, momentum=0.1, affine=True, track_running_stats=True)\n            (act2): ReLU(inplace=True)\n            (se): SqueezeExcite(\n              (conv_reduce): Conv2d(72, 24, kernel_size=(1, 1), stride=(1, 1))\n              (act1): ReLU(inplace=True)\n              (conv_expand): Conv2d(24, 72, kernel_size=(1, 1), stride=(1, 1))\n            )\n            (conv_pwl): Conv2d(72, 40, kernel_size=(1, 1), stride=(1, 1), bias=False)\n            (bn3): BatchNorm2d(40, eps=1e-05, momentum=0.1, affine=True, track_running_stats=True)\n          )\n          (1): InvertedResidual(\n            (conv_pw): Conv2d(40, 120, kernel_size=(1, 1), stride=(1, 1), bias=False)\n            (bn1): BatchNorm2d(120, eps=1e-05, momentum=0.1, affine=True, track_running_stats=True)\n            (act1): ReLU(inplace=True)\n            (conv_dw): Conv2d(120, 120, kernel_size=(5, 5), stride=(1, 1), padding=(2, 2), groups=120, bias=False)\n            (bn2): BatchNorm2d(120, eps=1e-05, momentum=0.1, affine=True, track_running_stats=True)\n            (act2): ReLU(inplace=True)\n            (se): SqueezeExcite(\n              (conv_reduce): Conv2d(120, 32, kernel_size=(1, 1), stride=(1, 1))\n              (act1): ReLU(inplace=True)\n              (conv_expand): Conv2d(32, 120, kernel_size=(1, 1), stride=(1, 1))\n            )\n            (conv_pwl): Conv2d(120, 40, kernel_size=(1, 1), stride=(1, 1), bias=False)\n            (bn3): BatchNorm2d(40, eps=1e-05, momentum=0.1, affine=True, track_running_stats=True)\n          )\n          (2): InvertedResidual(\n            (conv_pw): Conv2d(40, 120, kernel_size=(1, 1), stride=(1, 1), bias=False)\n            (bn1): BatchNorm2d(120, eps=1e-05, momentum=0.1, affine=True, track_running_stats=True)\n            (act1): ReLU(inplace=True)\n            (conv_dw): Conv2d(120, 120, kernel_size=(5, 5), stride=(1, 1), padding=(2, 2), groups=120, bias=False)\n            (bn2): BatchNorm2d(120, eps=1e-05, momentum=0.1, affine=True, track_running_stats=True)\n            (act2): ReLU(inplace=True)\n            (se): SqueezeExcite(\n              (conv_reduce): Conv2d(120, 32, kernel_size=(1, 1), stride=(1, 1))\n              (act1): ReLU(inplace=True)\n              (conv_expand): Conv2d(32, 120, kernel_size=(1, 1), stride=(1, 1))\n            )\n            (conv_pwl): Conv2d(120, 40, kernel_size=(1, 1), stride=(1, 1), bias=False)\n            (bn3): BatchNorm2d(40, eps=1e-05, momentum=0.1, affine=True, track_running_stats=True)\n          )\n        )\n        (3): Sequential(\n          (0): InvertedResidual(\n            (conv_pw): Conv2d(40, 240, kernel_size=(1, 1), stride=(1, 1), bias=False)\n            (bn1): BatchNorm2d(240, eps=1e-05, momentum=0.1, affine=True, track_running_stats=True)\n            (act1): HardSwishMe()\n            (conv_dw): Conv2d(240, 240, kernel_size=(3, 3), stride=(2, 2), padding=(1, 1), groups=240, bias=False)\n            (bn2): BatchNorm2d(240, eps=1e-05, momentum=0.1, affine=True, track_running_stats=True)\n            (act2): HardSwishMe()\n            (conv_pwl): Conv2d(240, 80, kernel_size=(1, 1), stride=(1, 1), bias=False)\n            (bn3): BatchNorm2d(80, eps=1e-05, momentum=0.1, affine=True, track_running_stats=True)\n          )\n          (1): InvertedResidual(\n            (conv_pw): Conv2d(80, 200, kernel_size=(1, 1), stride=(1, 1), bias=False)\n            (bn1): BatchNorm2d(200, eps=1e-05, momentum=0.1, affine=True, track_running_stats=True)\n            (act1): HardSwishMe()\n            (conv_dw): Conv2d(200, 200, kernel_size=(3, 3), stride=(1, 1), padding=(1, 1), groups=200, bias=False)\n            (bn2): BatchNorm2d(200, eps=1e-05, momentum=0.1, affine=True, track_running_stats=True)\n            (act2): HardSwishMe()\n            (conv_pwl): Conv2d(200, 80, kernel_size=(1, 1), stride=(1, 1), bias=False)\n            (bn3): BatchNorm2d(80, eps=1e-05, momentum=0.1, affine=True, track_running_stats=True)\n          )\n          (2): InvertedResidual(\n            (conv_pw): Conv2d(80, 184, kernel_size=(1, 1), stride=(1, 1), bias=False)\n            (bn1): BatchNorm2d(184, eps=1e-05, momentum=0.1, affine=True, track_running_stats=True)\n            (act1): HardSwishMe()\n            (conv_dw): Conv2d(184, 184, kernel_size=(3, 3), stride=(1, 1), padding=(1, 1), groups=184, bias=False)\n            (bn2): BatchNorm2d(184, eps=1e-05, momentum=0.1, affine=True, track_running_stats=True)\n            (act2): HardSwishMe()\n            (conv_pwl): Conv2d(184, 80, kernel_size=(1, 1), stride=(1, 1), bias=False)\n            (bn3): BatchNorm2d(80, eps=1e-05, momentum=0.1, affine=True, track_running_stats=True)\n          )\n          (3): InvertedResidual(\n            (conv_pw): Conv2d(80, 184, kernel_size=(1, 1), stride=(1, 1), bias=False)\n            (bn1): BatchNorm2d(184, eps=1e-05, momentum=0.1, affine=True, track_running_stats=True)\n            (act1): HardSwishMe()\n            (conv_dw): Conv2d(184, 184, kernel_size=(3, 3), stride=(1, 1), padding=(1, 1), groups=184, bias=False)\n            (bn2): BatchNorm2d(184, eps=1e-05, momentum=0.1, affine=True, track_running_stats=True)\n            (act2): HardSwishMe()\n            (conv_pwl): Conv2d(184, 80, kernel_size=(1, 1), stride=(1, 1), bias=False)\n            (bn3): BatchNorm2d(80, eps=1e-05, momentum=0.1, affine=True, track_running_stats=True)\n          )\n        )\n        (4): Sequential(\n          (0): InvertedResidual(\n            (conv_pw): Conv2d(80, 480, kernel_size=(1, 1), stride=(1, 1), bias=False)\n            (bn1): BatchNorm2d(480, eps=1e-05, momentum=0.1, affine=True, track_running_stats=True)\n            (act1): HardSwishMe()\n            (conv_dw): Conv2d(480, 480, kernel_size=(3, 3), stride=(1, 1), padding=(1, 1), groups=480, bias=False)\n            (bn2): BatchNorm2d(480, eps=1e-05, momentum=0.1, affine=True, track_running_stats=True)\n            (act2): HardSwishMe()\n            (se): SqueezeExcite(\n              (conv_reduce): Conv2d(480, 120, kernel_size=(1, 1), stride=(1, 1))\n              (act1): ReLU(inplace=True)\n              (conv_expand): Conv2d(120, 480, kernel_size=(1, 1), stride=(1, 1))\n            )\n            (conv_pwl): Conv2d(480, 112, kernel_size=(1, 1), stride=(1, 1), bias=False)\n            (bn3): BatchNorm2d(112, eps=1e-05, momentum=0.1, affine=True, track_running_stats=True)\n          )\n          (1): InvertedResidual(\n            (conv_pw): Conv2d(112, 672, kernel_size=(1, 1), stride=(1, 1), bias=False)\n            (bn1): BatchNorm2d(672, eps=1e-05, momentum=0.1, affine=True, track_running_stats=True)\n            (act1): HardSwishMe()\n            (conv_dw): Conv2d(672, 672, kernel_size=(3, 3), stride=(1, 1), padding=(1, 1), groups=672, bias=False)\n            (bn2): BatchNorm2d(672, eps=1e-05, momentum=0.1, affine=True, track_running_stats=True)\n            (act2): HardSwishMe()\n            (se): SqueezeExcite(\n              (conv_reduce): Conv2d(672, 168, kernel_size=(1, 1), stride=(1, 1))\n              (act1): ReLU(inplace=True)\n              (conv_expand): Conv2d(168, 672, kernel_size=(1, 1), stride=(1, 1))\n            )\n            (conv_pwl): Conv2d(672, 112, kernel_size=(1, 1), stride=(1, 1), bias=False)\n            (bn3): BatchNorm2d(112, eps=1e-05, momentum=0.1, affine=True, track_running_stats=True)\n          )\n        )\n        (5): Sequential(\n          (0): InvertedResidual(\n            (conv_pw): Conv2d(112, 672, kernel_size=(1, 1), stride=(1, 1), bias=False)\n            (bn1): BatchNorm2d(672, eps=1e-05, momentum=0.1, affine=True, track_running_stats=True)\n            (act1): HardSwishMe()\n            (conv_dw): Conv2d(672, 672, kernel_size=(5, 5), stride=(2, 2), padding=(2, 2), groups=672, bias=False)\n            (bn2): BatchNorm2d(672, eps=1e-05, momentum=0.1, affine=True, track_running_stats=True)\n            (act2): HardSwishMe()\n            (se): SqueezeExcite(\n              (conv_reduce): Conv2d(672, 168, kernel_size=(1, 1), stride=(1, 1))\n              (act1): ReLU(inplace=True)\n              (conv_expand): Conv2d(168, 672, kernel_size=(1, 1), stride=(1, 1))\n            )\n            (conv_pwl): Conv2d(672, 160, kernel_size=(1, 1), stride=(1, 1), bias=False)\n            (bn3): BatchNorm2d(160, eps=1e-05, momentum=0.1, affine=True, track_running_stats=True)\n          )\n          (1): InvertedResidual(\n            (conv_pw): Conv2d(160, 960, kernel_size=(1, 1), stride=(1, 1), bias=False)\n            (bn1): BatchNorm2d(960, eps=1e-05, momentum=0.1, affine=True, track_running_stats=True)\n            (act1): HardSwishMe()\n            (conv_dw): Conv2d(960, 960, kernel_size=(5, 5), stride=(1, 1), padding=(2, 2), groups=960, bias=False)\n            (bn2): BatchNorm2d(960, eps=1e-05, momentum=0.1, affine=True, track_running_stats=True)\n            (act2): HardSwishMe()\n            (se): SqueezeExcite(\n              (conv_reduce): Conv2d(960, 240, kernel_size=(1, 1), stride=(1, 1))\n              (act1): ReLU(inplace=True)\n              (conv_expand): Conv2d(240, 960, kernel_size=(1, 1), stride=(1, 1))\n            )\n            (conv_pwl): Conv2d(960, 160, kernel_size=(1, 1), stride=(1, 1), bias=False)\n            (bn3): BatchNorm2d(160, eps=1e-05, momentum=0.1, affine=True, track_running_stats=True)\n          )\n          (2): InvertedResidual(\n            (conv_pw): Conv2d(160, 960, kernel_size=(1, 1), stride=(1, 1), bias=False)\n            (bn1): BatchNorm2d(960, eps=1e-05, momentum=0.1, affine=True, track_running_stats=True)\n            (act1): HardSwishMe()\n            (conv_dw): Conv2d(960, 960, kernel_size=(5, 5), stride=(1, 1), padding=(2, 2), groups=960, bias=False)\n            (bn2): BatchNorm2d(960, eps=1e-05, momentum=0.1, affine=True, track_running_stats=True)\n            (act2): HardSwishMe()\n            (se): SqueezeExcite(\n              (conv_reduce): Conv2d(960, 240, kernel_size=(1, 1), stride=(1, 1))\n              (act1): ReLU(inplace=True)\n              (conv_expand): Conv2d(240, 960, kernel_size=(1, 1), stride=(1, 1))\n            )\n            (conv_pwl): Conv2d(960, 160, kernel_size=(1, 1), stride=(1, 1), bias=False)\n            (bn3): BatchNorm2d(160, eps=1e-05, momentum=0.1, affine=True, track_running_stats=True)\n          )\n        )\n        (6): Sequential(\n          (0): ConvBnAct(\n            (conv): Conv2d(160, 960, kernel_size=(1, 1), stride=(1, 1), bias=False)\n            (bn1): BatchNorm2d(960, eps=1e-05, momentum=0.1, affine=True, track_running_stats=True)\n            (act1): HardSwishMe()\n          )\n        )\n      )\n      (global_pool): SelectAdaptivePool2d (pool_type=avg, flatten=False)\n      (conv_head): Conv2d(960, 1280, kernel_size=(1, 1), stride=(1, 1))\n      (act2): HardSwishMe()\n      (classifier): Linear(in_features=1280, out_features=512, bias=True)\n    )\n    (1): BatchNorm1d(512, eps=1e-05, momentum=0.1, affine=True, track_running_stats=True)\n    (2): ReLU()\n  )\n  (gender_head): Sequential(\n    (0): Dropout(p=0.2, inplace=False)\n    (1): Linear(in_features=512, out_features=1, bias=True)\n    (2): Sigmoid()\n  )\n  (age_head): Sequential(\n    (0): Linear(in_features=512, out_features=116, bias=True)\n  )\n)", "parameters": [], "output_shape": [[16, 116], [16, 1]], "num_parameters": []}, {"name": "module", "id": 140428336006432, "class_name": "Net(\n  (backbone): Sequential(\n    (0): MobileNetV3(\n      (conv_stem): Conv2d(3, 16, kernel_size=(3, 3), stride=(2, 2), padding=(1, 1), bias=False)\n      (bn1): BatchNorm2d(16, eps=1e-05, momentum=0.1, affine=True, track_running_stats=True)\n      (act1): HardSwishMe()\n      (blocks): Sequential(\n        (0): Sequential(\n          (0): DepthwiseSeparableConv(\n            (conv_dw): Conv2d(16, 16, kernel_size=(3, 3), stride=(1, 1), padding=(1, 1), groups=16, bias=False)\n            (bn1): BatchNorm2d(16, eps=1e-05, momentum=0.1, affine=True, track_running_stats=True)\n            (act1): ReLU(inplace=True)\n            (conv_pw): Conv2d(16, 16, kernel_size=(1, 1), stride=(1, 1), bias=False)\n            (bn2): BatchNorm2d(16, eps=1e-05, momentum=0.1, affine=True, track_running_stats=True)\n            (act2): Identity()\n          )\n        )\n        (1): Sequential(\n          (0): InvertedResidual(\n            (conv_pw): Conv2d(16, 64, kernel_size=(1, 1), stride=(1, 1), bias=False)\n            (bn1): BatchNorm2d(64, eps=1e-05, momentum=0.1, affine=True, track_running_stats=True)\n            (act1): ReLU(inplace=True)\n            (conv_dw): Conv2d(64, 64, kernel_size=(3, 3), stride=(2, 2), padding=(1, 1), groups=64, bias=False)\n            (bn2): BatchNorm2d(64, eps=1e-05, momentum=0.1, affine=True, track_running_stats=True)\n            (act2): ReLU(inplace=True)\n            (conv_pwl): Conv2d(64, 24, kernel_size=(1, 1), stride=(1, 1), bias=False)\n            (bn3): BatchNorm2d(24, eps=1e-05, momentum=0.1, affine=True, track_running_stats=True)\n          )\n          (1): InvertedResidual(\n            (conv_pw): Conv2d(24, 72, kernel_size=(1, 1), stride=(1, 1), bias=False)\n            (bn1): BatchNorm2d(72, eps=1e-05, momentum=0.1, affine=True, track_running_stats=True)\n            (act1): ReLU(inplace=True)\n            (conv_dw): Conv2d(72, 72, kernel_size=(3, 3), stride=(1, 1), padding=(1, 1), groups=72, bias=False)\n            (bn2): BatchNorm2d(72, eps=1e-05, momentum=0.1, affine=True, track_running_stats=True)\n            (act2): ReLU(inplace=True)\n            (conv_pwl): Conv2d(72, 24, kernel_size=(1, 1), stride=(1, 1), bias=False)\n            (bn3): BatchNorm2d(24, eps=1e-05, momentum=0.1, affine=True, track_running_stats=True)\n          )\n        )\n        (2): Sequential(\n          (0): InvertedResidual(\n            (conv_pw): Conv2d(24, 72, kernel_size=(1, 1), stride=(1, 1), bias=False)\n            (bn1): BatchNorm2d(72, eps=1e-05, momentum=0.1, affine=True, track_running_stats=True)\n            (act1): ReLU(inplace=True)\n            (conv_dw): Conv2d(72, 72, kernel_size=(5, 5), stride=(2, 2), padding=(2, 2), groups=72, bias=False)\n            (bn2): BatchNorm2d(72, eps=1e-05, momentum=0.1, affine=True, track_running_stats=True)\n            (act2): ReLU(inplace=True)\n            (se): SqueezeExcite(\n              (conv_reduce): Conv2d(72, 24, kernel_size=(1, 1), stride=(1, 1))\n              (act1): ReLU(inplace=True)\n              (conv_expand): Conv2d(24, 72, kernel_size=(1, 1), stride=(1, 1))\n            )\n            (conv_pwl): Conv2d(72, 40, kernel_size=(1, 1), stride=(1, 1), bias=False)\n            (bn3): BatchNorm2d(40, eps=1e-05, momentum=0.1, affine=True, track_running_stats=True)\n          )\n          (1): InvertedResidual(\n            (conv_pw): Conv2d(40, 120, kernel_size=(1, 1), stride=(1, 1), bias=False)\n            (bn1): BatchNorm2d(120, eps=1e-05, momentum=0.1, affine=True, track_running_stats=True)\n            (act1): ReLU(inplace=True)\n            (conv_dw): Conv2d(120, 120, kernel_size=(5, 5), stride=(1, 1), padding=(2, 2), groups=120, bias=False)\n            (bn2): BatchNorm2d(120, eps=1e-05, momentum=0.1, affine=True, track_running_stats=True)\n            (act2): ReLU(inplace=True)\n            (se): SqueezeExcite(\n              (conv_reduce): Conv2d(120, 32, kernel_size=(1, 1), stride=(1, 1))\n              (act1): ReLU(inplace=True)\n              (conv_expand): Conv2d(32, 120, kernel_size=(1, 1), stride=(1, 1))\n            )\n            (conv_pwl): Conv2d(120, 40, kernel_size=(1, 1), stride=(1, 1), bias=False)\n            (bn3): BatchNorm2d(40, eps=1e-05, momentum=0.1, affine=True, track_running_stats=True)\n          )\n          (2): InvertedResidual(\n            (conv_pw): Conv2d(40, 120, kernel_size=(1, 1), stride=(1, 1), bias=False)\n            (bn1): BatchNorm2d(120, eps=1e-05, momentum=0.1, affine=True, track_running_stats=True)\n            (act1): ReLU(inplace=True)\n            (conv_dw): Conv2d(120, 120, kernel_size=(5, 5), stride=(1, 1), padding=(2, 2), groups=120, bias=False)\n            (bn2): BatchNorm2d(120, eps=1e-05, momentum=0.1, affine=True, track_running_stats=True)\n            (act2): ReLU(inplace=True)\n            (se): SqueezeExcite(\n              (conv_reduce): Conv2d(120, 32, kernel_size=(1, 1), stride=(1, 1))\n              (act1): ReLU(inplace=True)\n              (conv_expand): Conv2d(32, 120, kernel_size=(1, 1), stride=(1, 1))\n            )\n            (conv_pwl): Conv2d(120, 40, kernel_size=(1, 1), stride=(1, 1), bias=False)\n            (bn3): BatchNorm2d(40, eps=1e-05, momentum=0.1, affine=True, track_running_stats=True)\n          )\n        )\n        (3): Sequential(\n          (0): InvertedResidual(\n            (conv_pw): Conv2d(40, 240, kernel_size=(1, 1), stride=(1, 1), bias=False)\n            (bn1): BatchNorm2d(240, eps=1e-05, momentum=0.1, affine=True, track_running_stats=True)\n            (act1): HardSwishMe()\n            (conv_dw): Conv2d(240, 240, kernel_size=(3, 3), stride=(2, 2), padding=(1, 1), groups=240, bias=False)\n            (bn2): BatchNorm2d(240, eps=1e-05, momentum=0.1, affine=True, track_running_stats=True)\n            (act2): HardSwishMe()\n            (conv_pwl): Conv2d(240, 80, kernel_size=(1, 1), stride=(1, 1), bias=False)\n            (bn3): BatchNorm2d(80, eps=1e-05, momentum=0.1, affine=True, track_running_stats=True)\n          )\n          (1): InvertedResidual(\n            (conv_pw): Conv2d(80, 200, kernel_size=(1, 1), stride=(1, 1), bias=False)\n            (bn1): BatchNorm2d(200, eps=1e-05, momentum=0.1, affine=True, track_running_stats=True)\n            (act1): HardSwishMe()\n            (conv_dw): Conv2d(200, 200, kernel_size=(3, 3), stride=(1, 1), padding=(1, 1), groups=200, bias=False)\n            (bn2): BatchNorm2d(200, eps=1e-05, momentum=0.1, affine=True, track_running_stats=True)\n            (act2): HardSwishMe()\n            (conv_pwl): Conv2d(200, 80, kernel_size=(1, 1), stride=(1, 1), bias=False)\n            (bn3): BatchNorm2d(80, eps=1e-05, momentum=0.1, affine=True, track_running_stats=True)\n          )\n          (2): InvertedResidual(\n            (conv_pw): Conv2d(80, 184, kernel_size=(1, 1), stride=(1, 1), bias=False)\n            (bn1): BatchNorm2d(184, eps=1e-05, momentum=0.1, affine=True, track_running_stats=True)\n            (act1): HardSwishMe()\n            (conv_dw): Conv2d(184, 184, kernel_size=(3, 3), stride=(1, 1), padding=(1, 1), groups=184, bias=False)\n            (bn2): BatchNorm2d(184, eps=1e-05, momentum=0.1, affine=True, track_running_stats=True)\n            (act2): HardSwishMe()\n            (conv_pwl): Conv2d(184, 80, kernel_size=(1, 1), stride=(1, 1), bias=False)\n            (bn3): BatchNorm2d(80, eps=1e-05, momentum=0.1, affine=True, track_running_stats=True)\n          )\n          (3): InvertedResidual(\n            (conv_pw): Conv2d(80, 184, kernel_size=(1, 1), stride=(1, 1), bias=False)\n            (bn1): BatchNorm2d(184, eps=1e-05, momentum=0.1, affine=True, track_running_stats=True)\n            (act1): HardSwishMe()\n            (conv_dw): Conv2d(184, 184, kernel_size=(3, 3), stride=(1, 1), padding=(1, 1), groups=184, bias=False)\n            (bn2): BatchNorm2d(184, eps=1e-05, momentum=0.1, affine=True, track_running_stats=True)\n            (act2): HardSwishMe()\n            (conv_pwl): Conv2d(184, 80, kernel_size=(1, 1), stride=(1, 1), bias=False)\n            (bn3): BatchNorm2d(80, eps=1e-05, momentum=0.1, affine=True, track_running_stats=True)\n          )\n        )\n        (4): Sequential(\n          (0): InvertedResidual(\n            (conv_pw): Conv2d(80, 480, kernel_size=(1, 1), stride=(1, 1), bias=False)\n            (bn1): BatchNorm2d(480, eps=1e-05, momentum=0.1, affine=True, track_running_stats=True)\n            (act1): HardSwishMe()\n            (conv_dw): Conv2d(480, 480, kernel_size=(3, 3), stride=(1, 1), padding=(1, 1), groups=480, bias=False)\n            (bn2): BatchNorm2d(480, eps=1e-05, momentum=0.1, affine=True, track_running_stats=True)\n            (act2): HardSwishMe()\n            (se): SqueezeExcite(\n              (conv_reduce): Conv2d(480, 120, kernel_size=(1, 1), stride=(1, 1))\n              (act1): ReLU(inplace=True)\n              (conv_expand): Conv2d(120, 480, kernel_size=(1, 1), stride=(1, 1))\n            )\n            (conv_pwl): Conv2d(480, 112, kernel_size=(1, 1), stride=(1, 1), bias=False)\n            (bn3): BatchNorm2d(112, eps=1e-05, momentum=0.1, affine=True, track_running_stats=True)\n          )\n          (1): InvertedResidual(\n            (conv_pw): Conv2d(112, 672, kernel_size=(1, 1), stride=(1, 1), bias=False)\n            (bn1): BatchNorm2d(672, eps=1e-05, momentum=0.1, affine=True, track_running_stats=True)\n            (act1): HardSwishMe()\n            (conv_dw): Conv2d(672, 672, kernel_size=(3, 3), stride=(1, 1), padding=(1, 1), groups=672, bias=False)\n            (bn2): BatchNorm2d(672, eps=1e-05, momentum=0.1, affine=True, track_running_stats=True)\n            (act2): HardSwishMe()\n            (se): SqueezeExcite(\n              (conv_reduce): Conv2d(672, 168, kernel_size=(1, 1), stride=(1, 1))\n              (act1): ReLU(inplace=True)\n              (conv_expand): Conv2d(168, 672, kernel_size=(1, 1), stride=(1, 1))\n            )\n            (conv_pwl): Conv2d(672, 112, kernel_size=(1, 1), stride=(1, 1), bias=False)\n            (bn3): BatchNorm2d(112, eps=1e-05, momentum=0.1, affine=True, track_running_stats=True)\n          )\n        )\n        (5): Sequential(\n          (0): InvertedResidual(\n            (conv_pw): Conv2d(112, 672, kernel_size=(1, 1), stride=(1, 1), bias=False)\n            (bn1): BatchNorm2d(672, eps=1e-05, momentum=0.1, affine=True, track_running_stats=True)\n            (act1): HardSwishMe()\n            (conv_dw): Conv2d(672, 672, kernel_size=(5, 5), stride=(2, 2), padding=(2, 2), groups=672, bias=False)\n            (bn2): BatchNorm2d(672, eps=1e-05, momentum=0.1, affine=True, track_running_stats=True)\n            (act2): HardSwishMe()\n            (se): SqueezeExcite(\n              (conv_reduce): Conv2d(672, 168, kernel_size=(1, 1), stride=(1, 1))\n              (act1): ReLU(inplace=True)\n              (conv_expand): Conv2d(168, 672, kernel_size=(1, 1), stride=(1, 1))\n            )\n            (conv_pwl): Conv2d(672, 160, kernel_size=(1, 1), stride=(1, 1), bias=False)\n            (bn3): BatchNorm2d(160, eps=1e-05, momentum=0.1, affine=True, track_running_stats=True)\n          )\n          (1): InvertedResidual(\n            (conv_pw): Conv2d(160, 960, kernel_size=(1, 1), stride=(1, 1), bias=False)\n            (bn1): BatchNorm2d(960, eps=1e-05, momentum=0.1, affine=True, track_running_stats=True)\n            (act1): HardSwishMe()\n            (conv_dw): Conv2d(960, 960, kernel_size=(5, 5), stride=(1, 1), padding=(2, 2), groups=960, bias=False)\n            (bn2): BatchNorm2d(960, eps=1e-05, momentum=0.1, affine=True, track_running_stats=True)\n            (act2): HardSwishMe()\n            (se): SqueezeExcite(\n              (conv_reduce): Conv2d(960, 240, kernel_size=(1, 1), stride=(1, 1))\n              (act1): ReLU(inplace=True)\n              (conv_expand): Conv2d(240, 960, kernel_size=(1, 1), stride=(1, 1))\n            )\n            (conv_pwl): Conv2d(960, 160, kernel_size=(1, 1), stride=(1, 1), bias=False)\n            (bn3): BatchNorm2d(160, eps=1e-05, momentum=0.1, affine=True, track_running_stats=True)\n          )\n          (2): InvertedResidual(\n            (conv_pw): Conv2d(160, 960, kernel_size=(1, 1), stride=(1, 1), bias=False)\n            (bn1): BatchNorm2d(960, eps=1e-05, momentum=0.1, affine=True, track_running_stats=True)\n            (act1): HardSwishMe()\n            (conv_dw): Conv2d(960, 960, kernel_size=(5, 5), stride=(1, 1), padding=(2, 2), groups=960, bias=False)\n            (bn2): BatchNorm2d(960, eps=1e-05, momentum=0.1, affine=True, track_running_stats=True)\n            (act2): HardSwishMe()\n            (se): SqueezeExcite(\n              (conv_reduce): Conv2d(960, 240, kernel_size=(1, 1), stride=(1, 1))\n              (act1): ReLU(inplace=True)\n              (conv_expand): Conv2d(240, 960, kernel_size=(1, 1), stride=(1, 1))\n            )\n            (conv_pwl): Conv2d(960, 160, kernel_size=(1, 1), stride=(1, 1), bias=False)\n            (bn3): BatchNorm2d(160, eps=1e-05, momentum=0.1, affine=True, track_running_stats=True)\n          )\n        )\n        (6): Sequential(\n          (0): ConvBnAct(\n            (conv): Conv2d(160, 960, kernel_size=(1, 1), stride=(1, 1), bias=False)\n            (bn1): BatchNorm2d(960, eps=1e-05, momentum=0.1, affine=True, track_running_stats=True)\n            (act1): HardSwishMe()\n          )\n        )\n      )\n      (global_pool): SelectAdaptivePool2d (pool_type=avg, flatten=False)\n      (conv_head): Conv2d(960, 1280, kernel_size=(1, 1), stride=(1, 1))\n      (act2): HardSwishMe()\n      (classifier): Linear(in_features=1280, out_features=512, bias=True)\n    )\n    (1): BatchNorm1d(512, eps=1e-05, momentum=0.1, affine=True, track_running_stats=True)\n    (2): ReLU()\n  )\n  (gender_head): Sequential(\n    (0): Dropout(p=0.2, inplace=False)\n    (1): Linear(in_features=512, out_features=1, bias=True)\n    (2): Sigmoid()\n  )\n  (age_head): Sequential(\n    (0): Linear(in_features=512, out_features=116, bias=True)\n  )\n)", "parameters": [], "output_shape": [[16, 116], [16, 1]], "num_parameters": []}, {"name": "module", "id": 140425422766768, "class_name": "Net(\n  (backbone): Sequential(\n    (0): MobileNetV3(\n      (conv_stem): Conv2d(3, 16, kernel_size=(3, 3), stride=(2, 2), padding=(1, 1), bias=False)\n      (bn1): BatchNorm2d(16, eps=1e-05, momentum=0.1, affine=True, track_running_stats=True)\n      (act1): HardSwishMe()\n      (blocks): Sequential(\n        (0): Sequential(\n          (0): DepthwiseSeparableConv(\n            (conv_dw): Conv2d(16, 16, kernel_size=(3, 3), stride=(1, 1), padding=(1, 1), groups=16, bias=False)\n            (bn1): BatchNorm2d(16, eps=1e-05, momentum=0.1, affine=True, track_running_stats=True)\n            (act1): ReLU(inplace=True)\n            (conv_pw): Conv2d(16, 16, kernel_size=(1, 1), stride=(1, 1), bias=False)\n            (bn2): BatchNorm2d(16, eps=1e-05, momentum=0.1, affine=True, track_running_stats=True)\n            (act2): Identity()\n          )\n        )\n        (1): Sequential(\n          (0): InvertedResidual(\n            (conv_pw): Conv2d(16, 64, kernel_size=(1, 1), stride=(1, 1), bias=False)\n            (bn1): BatchNorm2d(64, eps=1e-05, momentum=0.1, affine=True, track_running_stats=True)\n            (act1): ReLU(inplace=True)\n            (conv_dw): Conv2d(64, 64, kernel_size=(3, 3), stride=(2, 2), padding=(1, 1), groups=64, bias=False)\n            (bn2): BatchNorm2d(64, eps=1e-05, momentum=0.1, affine=True, track_running_stats=True)\n            (act2): ReLU(inplace=True)\n            (conv_pwl): Conv2d(64, 24, kernel_size=(1, 1), stride=(1, 1), bias=False)\n            (bn3): BatchNorm2d(24, eps=1e-05, momentum=0.1, affine=True, track_running_stats=True)\n          )\n          (1): InvertedResidual(\n            (conv_pw): Conv2d(24, 72, kernel_size=(1, 1), stride=(1, 1), bias=False)\n            (bn1): BatchNorm2d(72, eps=1e-05, momentum=0.1, affine=True, track_running_stats=True)\n            (act1): ReLU(inplace=True)\n            (conv_dw): Conv2d(72, 72, kernel_size=(3, 3), stride=(1, 1), padding=(1, 1), groups=72, bias=False)\n            (bn2): BatchNorm2d(72, eps=1e-05, momentum=0.1, affine=True, track_running_stats=True)\n            (act2): ReLU(inplace=True)\n            (conv_pwl): Conv2d(72, 24, kernel_size=(1, 1), stride=(1, 1), bias=False)\n            (bn3): BatchNorm2d(24, eps=1e-05, momentum=0.1, affine=True, track_running_stats=True)\n          )\n        )\n        (2): Sequential(\n          (0): InvertedResidual(\n            (conv_pw): Conv2d(24, 72, kernel_size=(1, 1), stride=(1, 1), bias=False)\n            (bn1): BatchNorm2d(72, eps=1e-05, momentum=0.1, affine=True, track_running_stats=True)\n            (act1): ReLU(inplace=True)\n            (conv_dw): Conv2d(72, 72, kernel_size=(5, 5), stride=(2, 2), padding=(2, 2), groups=72, bias=False)\n            (bn2): BatchNorm2d(72, eps=1e-05, momentum=0.1, affine=True, track_running_stats=True)\n            (act2): ReLU(inplace=True)\n            (se): SqueezeExcite(\n              (conv_reduce): Conv2d(72, 24, kernel_size=(1, 1), stride=(1, 1))\n              (act1): ReLU(inplace=True)\n              (conv_expand): Conv2d(24, 72, kernel_size=(1, 1), stride=(1, 1))\n            )\n            (conv_pwl): Conv2d(72, 40, kernel_size=(1, 1), stride=(1, 1), bias=False)\n            (bn3): BatchNorm2d(40, eps=1e-05, momentum=0.1, affine=True, track_running_stats=True)\n          )\n          (1): InvertedResidual(\n            (conv_pw): Conv2d(40, 120, kernel_size=(1, 1), stride=(1, 1), bias=False)\n            (bn1): BatchNorm2d(120, eps=1e-05, momentum=0.1, affine=True, track_running_stats=True)\n            (act1): ReLU(inplace=True)\n            (conv_dw): Conv2d(120, 120, kernel_size=(5, 5), stride=(1, 1), padding=(2, 2), groups=120, bias=False)\n            (bn2): BatchNorm2d(120, eps=1e-05, momentum=0.1, affine=True, track_running_stats=True)\n            (act2): ReLU(inplace=True)\n            (se): SqueezeExcite(\n              (conv_reduce): Conv2d(120, 32, kernel_size=(1, 1), stride=(1, 1))\n              (act1): ReLU(inplace=True)\n              (conv_expand): Conv2d(32, 120, kernel_size=(1, 1), stride=(1, 1))\n            )\n            (conv_pwl): Conv2d(120, 40, kernel_size=(1, 1), stride=(1, 1), bias=False)\n            (bn3): BatchNorm2d(40, eps=1e-05, momentum=0.1, affine=True, track_running_stats=True)\n          )\n          (2): InvertedResidual(\n            (conv_pw): Conv2d(40, 120, kernel_size=(1, 1), stride=(1, 1), bias=False)\n            (bn1): BatchNorm2d(120, eps=1e-05, momentum=0.1, affine=True, track_running_stats=True)\n            (act1): ReLU(inplace=True)\n            (conv_dw): Conv2d(120, 120, kernel_size=(5, 5), stride=(1, 1), padding=(2, 2), groups=120, bias=False)\n            (bn2): BatchNorm2d(120, eps=1e-05, momentum=0.1, affine=True, track_running_stats=True)\n            (act2): ReLU(inplace=True)\n            (se): SqueezeExcite(\n              (conv_reduce): Conv2d(120, 32, kernel_size=(1, 1), stride=(1, 1))\n              (act1): ReLU(inplace=True)\n              (conv_expand): Conv2d(32, 120, kernel_size=(1, 1), stride=(1, 1))\n            )\n            (conv_pwl): Conv2d(120, 40, kernel_size=(1, 1), stride=(1, 1), bias=False)\n            (bn3): BatchNorm2d(40, eps=1e-05, momentum=0.1, affine=True, track_running_stats=True)\n          )\n        )\n        (3): Sequential(\n          (0): InvertedResidual(\n            (conv_pw): Conv2d(40, 240, kernel_size=(1, 1), stride=(1, 1), bias=False)\n            (bn1): BatchNorm2d(240, eps=1e-05, momentum=0.1, affine=True, track_running_stats=True)\n            (act1): HardSwishMe()\n            (conv_dw): Conv2d(240, 240, kernel_size=(3, 3), stride=(2, 2), padding=(1, 1), groups=240, bias=False)\n            (bn2): BatchNorm2d(240, eps=1e-05, momentum=0.1, affine=True, track_running_stats=True)\n            (act2): HardSwishMe()\n            (conv_pwl): Conv2d(240, 80, kernel_size=(1, 1), stride=(1, 1), bias=False)\n            (bn3): BatchNorm2d(80, eps=1e-05, momentum=0.1, affine=True, track_running_stats=True)\n          )\n          (1): InvertedResidual(\n            (conv_pw): Conv2d(80, 200, kernel_size=(1, 1), stride=(1, 1), bias=False)\n            (bn1): BatchNorm2d(200, eps=1e-05, momentum=0.1, affine=True, track_running_stats=True)\n            (act1): HardSwishMe()\n            (conv_dw): Conv2d(200, 200, kernel_size=(3, 3), stride=(1, 1), padding=(1, 1), groups=200, bias=False)\n            (bn2): BatchNorm2d(200, eps=1e-05, momentum=0.1, affine=True, track_running_stats=True)\n            (act2): HardSwishMe()\n            (conv_pwl): Conv2d(200, 80, kernel_size=(1, 1), stride=(1, 1), bias=False)\n            (bn3): BatchNorm2d(80, eps=1e-05, momentum=0.1, affine=True, track_running_stats=True)\n          )\n          (2): InvertedResidual(\n            (conv_pw): Conv2d(80, 184, kernel_size=(1, 1), stride=(1, 1), bias=False)\n            (bn1): BatchNorm2d(184, eps=1e-05, momentum=0.1, affine=True, track_running_stats=True)\n            (act1): HardSwishMe()\n            (conv_dw): Conv2d(184, 184, kernel_size=(3, 3), stride=(1, 1), padding=(1, 1), groups=184, bias=False)\n            (bn2): BatchNorm2d(184, eps=1e-05, momentum=0.1, affine=True, track_running_stats=True)\n            (act2): HardSwishMe()\n            (conv_pwl): Conv2d(184, 80, kernel_size=(1, 1), stride=(1, 1), bias=False)\n            (bn3): BatchNorm2d(80, eps=1e-05, momentum=0.1, affine=True, track_running_stats=True)\n          )\n          (3): InvertedResidual(\n            (conv_pw): Conv2d(80, 184, kernel_size=(1, 1), stride=(1, 1), bias=False)\n            (bn1): BatchNorm2d(184, eps=1e-05, momentum=0.1, affine=True, track_running_stats=True)\n            (act1): HardSwishMe()\n            (conv_dw): Conv2d(184, 184, kernel_size=(3, 3), stride=(1, 1), padding=(1, 1), groups=184, bias=False)\n            (bn2): BatchNorm2d(184, eps=1e-05, momentum=0.1, affine=True, track_running_stats=True)\n            (act2): HardSwishMe()\n            (conv_pwl): Conv2d(184, 80, kernel_size=(1, 1), stride=(1, 1), bias=False)\n            (bn3): BatchNorm2d(80, eps=1e-05, momentum=0.1, affine=True, track_running_stats=True)\n          )\n        )\n        (4): Sequential(\n          (0): InvertedResidual(\n            (conv_pw): Conv2d(80, 480, kernel_size=(1, 1), stride=(1, 1), bias=False)\n            (bn1): BatchNorm2d(480, eps=1e-05, momentum=0.1, affine=True, track_running_stats=True)\n            (act1): HardSwishMe()\n            (conv_dw): Conv2d(480, 480, kernel_size=(3, 3), stride=(1, 1), padding=(1, 1), groups=480, bias=False)\n            (bn2): BatchNorm2d(480, eps=1e-05, momentum=0.1, affine=True, track_running_stats=True)\n            (act2): HardSwishMe()\n            (se): SqueezeExcite(\n              (conv_reduce): Conv2d(480, 120, kernel_size=(1, 1), stride=(1, 1))\n              (act1): ReLU(inplace=True)\n              (conv_expand): Conv2d(120, 480, kernel_size=(1, 1), stride=(1, 1))\n            )\n            (conv_pwl): Conv2d(480, 112, kernel_size=(1, 1), stride=(1, 1), bias=False)\n            (bn3): BatchNorm2d(112, eps=1e-05, momentum=0.1, affine=True, track_running_stats=True)\n          )\n          (1): InvertedResidual(\n            (conv_pw): Conv2d(112, 672, kernel_size=(1, 1), stride=(1, 1), bias=False)\n            (bn1): BatchNorm2d(672, eps=1e-05, momentum=0.1, affine=True, track_running_stats=True)\n            (act1): HardSwishMe()\n            (conv_dw): Conv2d(672, 672, kernel_size=(3, 3), stride=(1, 1), padding=(1, 1), groups=672, bias=False)\n            (bn2): BatchNorm2d(672, eps=1e-05, momentum=0.1, affine=True, track_running_stats=True)\n            (act2): HardSwishMe()\n            (se): SqueezeExcite(\n              (conv_reduce): Conv2d(672, 168, kernel_size=(1, 1), stride=(1, 1))\n              (act1): ReLU(inplace=True)\n              (conv_expand): Conv2d(168, 672, kernel_size=(1, 1), stride=(1, 1))\n            )\n            (conv_pwl): Conv2d(672, 112, kernel_size=(1, 1), stride=(1, 1), bias=False)\n            (bn3): BatchNorm2d(112, eps=1e-05, momentum=0.1, affine=True, track_running_stats=True)\n          )\n        )\n        (5): Sequential(\n          (0): InvertedResidual(\n            (conv_pw): Conv2d(112, 672, kernel_size=(1, 1), stride=(1, 1), bias=False)\n            (bn1): BatchNorm2d(672, eps=1e-05, momentum=0.1, affine=True, track_running_stats=True)\n            (act1): HardSwishMe()\n            (conv_dw): Conv2d(672, 672, kernel_size=(5, 5), stride=(2, 2), padding=(2, 2), groups=672, bias=False)\n            (bn2): BatchNorm2d(672, eps=1e-05, momentum=0.1, affine=True, track_running_stats=True)\n            (act2): HardSwishMe()\n            (se): SqueezeExcite(\n              (conv_reduce): Conv2d(672, 168, kernel_size=(1, 1), stride=(1, 1))\n              (act1): ReLU(inplace=True)\n              (conv_expand): Conv2d(168, 672, kernel_size=(1, 1), stride=(1, 1))\n            )\n            (conv_pwl): Conv2d(672, 160, kernel_size=(1, 1), stride=(1, 1), bias=False)\n            (bn3): BatchNorm2d(160, eps=1e-05, momentum=0.1, affine=True, track_running_stats=True)\n          )\n          (1): InvertedResidual(\n            (conv_pw): Conv2d(160, 960, kernel_size=(1, 1), stride=(1, 1), bias=False)\n            (bn1): BatchNorm2d(960, eps=1e-05, momentum=0.1, affine=True, track_running_stats=True)\n            (act1): HardSwishMe()\n            (conv_dw): Conv2d(960, 960, kernel_size=(5, 5), stride=(1, 1), padding=(2, 2), groups=960, bias=False)\n            (bn2): BatchNorm2d(960, eps=1e-05, momentum=0.1, affine=True, track_running_stats=True)\n            (act2): HardSwishMe()\n            (se): SqueezeExcite(\n              (conv_reduce): Conv2d(960, 240, kernel_size=(1, 1), stride=(1, 1))\n              (act1): ReLU(inplace=True)\n              (conv_expand): Conv2d(240, 960, kernel_size=(1, 1), stride=(1, 1))\n            )\n            (conv_pwl): Conv2d(960, 160, kernel_size=(1, 1), stride=(1, 1), bias=False)\n            (bn3): BatchNorm2d(160, eps=1e-05, momentum=0.1, affine=True, track_running_stats=True)\n          )\n          (2): InvertedResidual(\n            (conv_pw): Conv2d(160, 960, kernel_size=(1, 1), stride=(1, 1), bias=False)\n            (bn1): BatchNorm2d(960, eps=1e-05, momentum=0.1, affine=True, track_running_stats=True)\n            (act1): HardSwishMe()\n            (conv_dw): Conv2d(960, 960, kernel_size=(5, 5), stride=(1, 1), padding=(2, 2), groups=960, bias=False)\n            (bn2): BatchNorm2d(960, eps=1e-05, momentum=0.1, affine=True, track_running_stats=True)\n            (act2): HardSwishMe()\n            (se): SqueezeExcite(\n              (conv_reduce): Conv2d(960, 240, kernel_size=(1, 1), stride=(1, 1))\n              (act1): ReLU(inplace=True)\n              (conv_expand): Conv2d(240, 960, kernel_size=(1, 1), stride=(1, 1))\n            )\n            (conv_pwl): Conv2d(960, 160, kernel_size=(1, 1), stride=(1, 1), bias=False)\n            (bn3): BatchNorm2d(160, eps=1e-05, momentum=0.1, affine=True, track_running_stats=True)\n          )\n        )\n        (6): Sequential(\n          (0): ConvBnAct(\n            (conv): Conv2d(160, 960, kernel_size=(1, 1), stride=(1, 1), bias=False)\n            (bn1): BatchNorm2d(960, eps=1e-05, momentum=0.1, affine=True, track_running_stats=True)\n            (act1): HardSwishMe()\n          )\n        )\n      )\n      (global_pool): SelectAdaptivePool2d (pool_type=avg, flatten=False)\n      (conv_head): Conv2d(960, 1280, kernel_size=(1, 1), stride=(1, 1))\n      (act2): HardSwishMe()\n      (classifier): Linear(in_features=1280, out_features=512, bias=True)\n    )\n    (1): BatchNorm1d(512, eps=1e-05, momentum=0.1, affine=True, track_running_stats=True)\n    (2): ReLU()\n  )\n  (gender_head): Sequential(\n    (0): Dropout(p=0.2, inplace=False)\n    (1): Linear(in_features=512, out_features=1, bias=True)\n    (2): Sigmoid()\n  )\n  (age_head): Sequential(\n    (0): Linear(in_features=512, out_features=116, bias=True)\n  )\n)", "parameters": [], "output_shape": [[16, 116], [16, 1]], "num_parameters": []}, {"name": "module", "id": 140425428746736, "class_name": "Net(\n  (backbone): Sequential(\n    (0): MobileNetV3(\n      (conv_stem): Conv2d(3, 16, kernel_size=(3, 3), stride=(2, 2), padding=(1, 1), bias=False)\n      (bn1): BatchNorm2d(16, eps=1e-05, momentum=0.1, affine=True, track_running_stats=True)\n      (act1): HardSwishMe()\n      (blocks): Sequential(\n        (0): Sequential(\n          (0): DepthwiseSeparableConv(\n            (conv_dw): Conv2d(16, 16, kernel_size=(3, 3), stride=(1, 1), padding=(1, 1), groups=16, bias=False)\n            (bn1): BatchNorm2d(16, eps=1e-05, momentum=0.1, affine=True, track_running_stats=True)\n            (act1): ReLU(inplace=True)\n            (conv_pw): Conv2d(16, 16, kernel_size=(1, 1), stride=(1, 1), bias=False)\n            (bn2): BatchNorm2d(16, eps=1e-05, momentum=0.1, affine=True, track_running_stats=True)\n            (act2): Identity()\n          )\n        )\n        (1): Sequential(\n          (0): InvertedResidual(\n            (conv_pw): Conv2d(16, 64, kernel_size=(1, 1), stride=(1, 1), bias=False)\n            (bn1): BatchNorm2d(64, eps=1e-05, momentum=0.1, affine=True, track_running_stats=True)\n            (act1): ReLU(inplace=True)\n            (conv_dw): Conv2d(64, 64, kernel_size=(3, 3), stride=(2, 2), padding=(1, 1), groups=64, bias=False)\n            (bn2): BatchNorm2d(64, eps=1e-05, momentum=0.1, affine=True, track_running_stats=True)\n            (act2): ReLU(inplace=True)\n            (conv_pwl): Conv2d(64, 24, kernel_size=(1, 1), stride=(1, 1), bias=False)\n            (bn3): BatchNorm2d(24, eps=1e-05, momentum=0.1, affine=True, track_running_stats=True)\n          )\n          (1): InvertedResidual(\n            (conv_pw): Conv2d(24, 72, kernel_size=(1, 1), stride=(1, 1), bias=False)\n            (bn1): BatchNorm2d(72, eps=1e-05, momentum=0.1, affine=True, track_running_stats=True)\n            (act1): ReLU(inplace=True)\n            (conv_dw): Conv2d(72, 72, kernel_size=(3, 3), stride=(1, 1), padding=(1, 1), groups=72, bias=False)\n            (bn2): BatchNorm2d(72, eps=1e-05, momentum=0.1, affine=True, track_running_stats=True)\n            (act2): ReLU(inplace=True)\n            (conv_pwl): Conv2d(72, 24, kernel_size=(1, 1), stride=(1, 1), bias=False)\n            (bn3): BatchNorm2d(24, eps=1e-05, momentum=0.1, affine=True, track_running_stats=True)\n          )\n        )\n        (2): Sequential(\n          (0): InvertedResidual(\n            (conv_pw): Conv2d(24, 72, kernel_size=(1, 1), stride=(1, 1), bias=False)\n            (bn1): BatchNorm2d(72, eps=1e-05, momentum=0.1, affine=True, track_running_stats=True)\n            (act1): ReLU(inplace=True)\n            (conv_dw): Conv2d(72, 72, kernel_size=(5, 5), stride=(2, 2), padding=(2, 2), groups=72, bias=False)\n            (bn2): BatchNorm2d(72, eps=1e-05, momentum=0.1, affine=True, track_running_stats=True)\n            (act2): ReLU(inplace=True)\n            (se): SqueezeExcite(\n              (conv_reduce): Conv2d(72, 24, kernel_size=(1, 1), stride=(1, 1))\n              (act1): ReLU(inplace=True)\n              (conv_expand): Conv2d(24, 72, kernel_size=(1, 1), stride=(1, 1))\n            )\n            (conv_pwl): Conv2d(72, 40, kernel_size=(1, 1), stride=(1, 1), bias=False)\n            (bn3): BatchNorm2d(40, eps=1e-05, momentum=0.1, affine=True, track_running_stats=True)\n          )\n          (1): InvertedResidual(\n            (conv_pw): Conv2d(40, 120, kernel_size=(1, 1), stride=(1, 1), bias=False)\n            (bn1): BatchNorm2d(120, eps=1e-05, momentum=0.1, affine=True, track_running_stats=True)\n            (act1): ReLU(inplace=True)\n            (conv_dw): Conv2d(120, 120, kernel_size=(5, 5), stride=(1, 1), padding=(2, 2), groups=120, bias=False)\n            (bn2): BatchNorm2d(120, eps=1e-05, momentum=0.1, affine=True, track_running_stats=True)\n            (act2): ReLU(inplace=True)\n            (se): SqueezeExcite(\n              (conv_reduce): Conv2d(120, 32, kernel_size=(1, 1), stride=(1, 1))\n              (act1): ReLU(inplace=True)\n              (conv_expand): Conv2d(32, 120, kernel_size=(1, 1), stride=(1, 1))\n            )\n            (conv_pwl): Conv2d(120, 40, kernel_size=(1, 1), stride=(1, 1), bias=False)\n            (bn3): BatchNorm2d(40, eps=1e-05, momentum=0.1, affine=True, track_running_stats=True)\n          )\n          (2): InvertedResidual(\n            (conv_pw): Conv2d(40, 120, kernel_size=(1, 1), stride=(1, 1), bias=False)\n            (bn1): BatchNorm2d(120, eps=1e-05, momentum=0.1, affine=True, track_running_stats=True)\n            (act1): ReLU(inplace=True)\n            (conv_dw): Conv2d(120, 120, kernel_size=(5, 5), stride=(1, 1), padding=(2, 2), groups=120, bias=False)\n            (bn2): BatchNorm2d(120, eps=1e-05, momentum=0.1, affine=True, track_running_stats=True)\n            (act2): ReLU(inplace=True)\n            (se): SqueezeExcite(\n              (conv_reduce): Conv2d(120, 32, kernel_size=(1, 1), stride=(1, 1))\n              (act1): ReLU(inplace=True)\n              (conv_expand): Conv2d(32, 120, kernel_size=(1, 1), stride=(1, 1))\n            )\n            (conv_pwl): Conv2d(120, 40, kernel_size=(1, 1), stride=(1, 1), bias=False)\n            (bn3): BatchNorm2d(40, eps=1e-05, momentum=0.1, affine=True, track_running_stats=True)\n          )\n        )\n        (3): Sequential(\n          (0): InvertedResidual(\n            (conv_pw): Conv2d(40, 240, kernel_size=(1, 1), stride=(1, 1), bias=False)\n            (bn1): BatchNorm2d(240, eps=1e-05, momentum=0.1, affine=True, track_running_stats=True)\n            (act1): HardSwishMe()\n            (conv_dw): Conv2d(240, 240, kernel_size=(3, 3), stride=(2, 2), padding=(1, 1), groups=240, bias=False)\n            (bn2): BatchNorm2d(240, eps=1e-05, momentum=0.1, affine=True, track_running_stats=True)\n            (act2): HardSwishMe()\n            (conv_pwl): Conv2d(240, 80, kernel_size=(1, 1), stride=(1, 1), bias=False)\n            (bn3): BatchNorm2d(80, eps=1e-05, momentum=0.1, affine=True, track_running_stats=True)\n          )\n          (1): InvertedResidual(\n            (conv_pw): Conv2d(80, 200, kernel_size=(1, 1), stride=(1, 1), bias=False)\n            (bn1): BatchNorm2d(200, eps=1e-05, momentum=0.1, affine=True, track_running_stats=True)\n            (act1): HardSwishMe()\n            (conv_dw): Conv2d(200, 200, kernel_size=(3, 3), stride=(1, 1), padding=(1, 1), groups=200, bias=False)\n            (bn2): BatchNorm2d(200, eps=1e-05, momentum=0.1, affine=True, track_running_stats=True)\n            (act2): HardSwishMe()\n            (conv_pwl): Conv2d(200, 80, kernel_size=(1, 1), stride=(1, 1), bias=False)\n            (bn3): BatchNorm2d(80, eps=1e-05, momentum=0.1, affine=True, track_running_stats=True)\n          )\n          (2): InvertedResidual(\n            (conv_pw): Conv2d(80, 184, kernel_size=(1, 1), stride=(1, 1), bias=False)\n            (bn1): BatchNorm2d(184, eps=1e-05, momentum=0.1, affine=True, track_running_stats=True)\n            (act1): HardSwishMe()\n            (conv_dw): Conv2d(184, 184, kernel_size=(3, 3), stride=(1, 1), padding=(1, 1), groups=184, bias=False)\n            (bn2): BatchNorm2d(184, eps=1e-05, momentum=0.1, affine=True, track_running_stats=True)\n            (act2): HardSwishMe()\n            (conv_pwl): Conv2d(184, 80, kernel_size=(1, 1), stride=(1, 1), bias=False)\n            (bn3): BatchNorm2d(80, eps=1e-05, momentum=0.1, affine=True, track_running_stats=True)\n          )\n          (3): InvertedResidual(\n            (conv_pw): Conv2d(80, 184, kernel_size=(1, 1), stride=(1, 1), bias=False)\n            (bn1): BatchNorm2d(184, eps=1e-05, momentum=0.1, affine=True, track_running_stats=True)\n            (act1): HardSwishMe()\n            (conv_dw): Conv2d(184, 184, kernel_size=(3, 3), stride=(1, 1), padding=(1, 1), groups=184, bias=False)\n            (bn2): BatchNorm2d(184, eps=1e-05, momentum=0.1, affine=True, track_running_stats=True)\n            (act2): HardSwishMe()\n            (conv_pwl): Conv2d(184, 80, kernel_size=(1, 1), stride=(1, 1), bias=False)\n            (bn3): BatchNorm2d(80, eps=1e-05, momentum=0.1, affine=True, track_running_stats=True)\n          )\n        )\n        (4): Sequential(\n          (0): InvertedResidual(\n            (conv_pw): Conv2d(80, 480, kernel_size=(1, 1), stride=(1, 1), bias=False)\n            (bn1): BatchNorm2d(480, eps=1e-05, momentum=0.1, affine=True, track_running_stats=True)\n            (act1): HardSwishMe()\n            (conv_dw): Conv2d(480, 480, kernel_size=(3, 3), stride=(1, 1), padding=(1, 1), groups=480, bias=False)\n            (bn2): BatchNorm2d(480, eps=1e-05, momentum=0.1, affine=True, track_running_stats=True)\n            (act2): HardSwishMe()\n            (se): SqueezeExcite(\n              (conv_reduce): Conv2d(480, 120, kernel_size=(1, 1), stride=(1, 1))\n              (act1): ReLU(inplace=True)\n              (conv_expand): Conv2d(120, 480, kernel_size=(1, 1), stride=(1, 1))\n            )\n            (conv_pwl): Conv2d(480, 112, kernel_size=(1, 1), stride=(1, 1), bias=False)\n            (bn3): BatchNorm2d(112, eps=1e-05, momentum=0.1, affine=True, track_running_stats=True)\n          )\n          (1): InvertedResidual(\n            (conv_pw): Conv2d(112, 672, kernel_size=(1, 1), stride=(1, 1), bias=False)\n            (bn1): BatchNorm2d(672, eps=1e-05, momentum=0.1, affine=True, track_running_stats=True)\n            (act1): HardSwishMe()\n            (conv_dw): Conv2d(672, 672, kernel_size=(3, 3), stride=(1, 1), padding=(1, 1), groups=672, bias=False)\n            (bn2): BatchNorm2d(672, eps=1e-05, momentum=0.1, affine=True, track_running_stats=True)\n            (act2): HardSwishMe()\n            (se): SqueezeExcite(\n              (conv_reduce): Conv2d(672, 168, kernel_size=(1, 1), stride=(1, 1))\n              (act1): ReLU(inplace=True)\n              (conv_expand): Conv2d(168, 672, kernel_size=(1, 1), stride=(1, 1))\n            )\n            (conv_pwl): Conv2d(672, 112, kernel_size=(1, 1), stride=(1, 1), bias=False)\n            (bn3): BatchNorm2d(112, eps=1e-05, momentum=0.1, affine=True, track_running_stats=True)\n          )\n        )\n        (5): Sequential(\n          (0): InvertedResidual(\n            (conv_pw): Conv2d(112, 672, kernel_size=(1, 1), stride=(1, 1), bias=False)\n            (bn1): BatchNorm2d(672, eps=1e-05, momentum=0.1, affine=True, track_running_stats=True)\n            (act1): HardSwishMe()\n            (conv_dw): Conv2d(672, 672, kernel_size=(5, 5), stride=(2, 2), padding=(2, 2), groups=672, bias=False)\n            (bn2): BatchNorm2d(672, eps=1e-05, momentum=0.1, affine=True, track_running_stats=True)\n            (act2): HardSwishMe()\n            (se): SqueezeExcite(\n              (conv_reduce): Conv2d(672, 168, kernel_size=(1, 1), stride=(1, 1))\n              (act1): ReLU(inplace=True)\n              (conv_expand): Conv2d(168, 672, kernel_size=(1, 1), stride=(1, 1))\n            )\n            (conv_pwl): Conv2d(672, 160, kernel_size=(1, 1), stride=(1, 1), bias=False)\n            (bn3): BatchNorm2d(160, eps=1e-05, momentum=0.1, affine=True, track_running_stats=True)\n          )\n          (1): InvertedResidual(\n            (conv_pw): Conv2d(160, 960, kernel_size=(1, 1), stride=(1, 1), bias=False)\n            (bn1): BatchNorm2d(960, eps=1e-05, momentum=0.1, affine=True, track_running_stats=True)\n            (act1): HardSwishMe()\n            (conv_dw): Conv2d(960, 960, kernel_size=(5, 5), stride=(1, 1), padding=(2, 2), groups=960, bias=False)\n            (bn2): BatchNorm2d(960, eps=1e-05, momentum=0.1, affine=True, track_running_stats=True)\n            (act2): HardSwishMe()\n            (se): SqueezeExcite(\n              (conv_reduce): Conv2d(960, 240, kernel_size=(1, 1), stride=(1, 1))\n              (act1): ReLU(inplace=True)\n              (conv_expand): Conv2d(240, 960, kernel_size=(1, 1), stride=(1, 1))\n            )\n            (conv_pwl): Conv2d(960, 160, kernel_size=(1, 1), stride=(1, 1), bias=False)\n            (bn3): BatchNorm2d(160, eps=1e-05, momentum=0.1, affine=True, track_running_stats=True)\n          )\n          (2): InvertedResidual(\n            (conv_pw): Conv2d(160, 960, kernel_size=(1, 1), stride=(1, 1), bias=False)\n            (bn1): BatchNorm2d(960, eps=1e-05, momentum=0.1, affine=True, track_running_stats=True)\n            (act1): HardSwishMe()\n            (conv_dw): Conv2d(960, 960, kernel_size=(5, 5), stride=(1, 1), padding=(2, 2), groups=960, bias=False)\n            (bn2): BatchNorm2d(960, eps=1e-05, momentum=0.1, affine=True, track_running_stats=True)\n            (act2): HardSwishMe()\n            (se): SqueezeExcite(\n              (conv_reduce): Conv2d(960, 240, kernel_size=(1, 1), stride=(1, 1))\n              (act1): ReLU(inplace=True)\n              (conv_expand): Conv2d(240, 960, kernel_size=(1, 1), stride=(1, 1))\n            )\n            (conv_pwl): Conv2d(960, 160, kernel_size=(1, 1), stride=(1, 1), bias=False)\n            (bn3): BatchNorm2d(160, eps=1e-05, momentum=0.1, affine=True, track_running_stats=True)\n          )\n        )\n        (6): Sequential(\n          (0): ConvBnAct(\n            (conv): Conv2d(160, 960, kernel_size=(1, 1), stride=(1, 1), bias=False)\n            (bn1): BatchNorm2d(960, eps=1e-05, momentum=0.1, affine=True, track_running_stats=True)\n            (act1): HardSwishMe()\n          )\n        )\n      )\n      (global_pool): SelectAdaptivePool2d (pool_type=avg, flatten=False)\n      (conv_head): Conv2d(960, 1280, kernel_size=(1, 1), stride=(1, 1))\n      (act2): HardSwishMe()\n      (classifier): Linear(in_features=1280, out_features=512, bias=True)\n    )\n    (1): BatchNorm1d(512, eps=1e-05, momentum=0.1, affine=True, track_running_stats=True)\n    (2): ReLU()\n  )\n  (gender_head): Sequential(\n    (0): Dropout(p=0.2, inplace=False)\n    (1): Linear(in_features=512, out_features=1, bias=True)\n    (2): Sigmoid()\n  )\n  (age_head): Sequential(\n    (0): Linear(in_features=512, out_features=116, bias=True)\n  )\n)", "parameters": [], "output_shape": [[16, 116], [16, 1]], "num_parameters": []}, {"name": "module", "id": 140425422766480, "class_name": "Net(\n  (backbone): Sequential(\n    (0): MobileNetV3(\n      (conv_stem): Conv2d(3, 16, kernel_size=(3, 3), stride=(2, 2), padding=(1, 1), bias=False)\n      (bn1): BatchNorm2d(16, eps=1e-05, momentum=0.1, affine=True, track_running_stats=True)\n      (act1): HardSwishMe()\n      (blocks): Sequential(\n        (0): Sequential(\n          (0): DepthwiseSeparableConv(\n            (conv_dw): Conv2d(16, 16, kernel_size=(3, 3), stride=(1, 1), padding=(1, 1), groups=16, bias=False)\n            (bn1): BatchNorm2d(16, eps=1e-05, momentum=0.1, affine=True, track_running_stats=True)\n            (act1): ReLU(inplace=True)\n            (conv_pw): Conv2d(16, 16, kernel_size=(1, 1), stride=(1, 1), bias=False)\n            (bn2): BatchNorm2d(16, eps=1e-05, momentum=0.1, affine=True, track_running_stats=True)\n            (act2): Identity()\n          )\n        )\n        (1): Sequential(\n          (0): InvertedResidual(\n            (conv_pw): Conv2d(16, 64, kernel_size=(1, 1), stride=(1, 1), bias=False)\n            (bn1): BatchNorm2d(64, eps=1e-05, momentum=0.1, affine=True, track_running_stats=True)\n            (act1): ReLU(inplace=True)\n            (conv_dw): Conv2d(64, 64, kernel_size=(3, 3), stride=(2, 2), padding=(1, 1), groups=64, bias=False)\n            (bn2): BatchNorm2d(64, eps=1e-05, momentum=0.1, affine=True, track_running_stats=True)\n            (act2): ReLU(inplace=True)\n            (conv_pwl): Conv2d(64, 24, kernel_size=(1, 1), stride=(1, 1), bias=False)\n            (bn3): BatchNorm2d(24, eps=1e-05, momentum=0.1, affine=True, track_running_stats=True)\n          )\n          (1): InvertedResidual(\n            (conv_pw): Conv2d(24, 72, kernel_size=(1, 1), stride=(1, 1), bias=False)\n            (bn1): BatchNorm2d(72, eps=1e-05, momentum=0.1, affine=True, track_running_stats=True)\n            (act1): ReLU(inplace=True)\n            (conv_dw): Conv2d(72, 72, kernel_size=(3, 3), stride=(1, 1), padding=(1, 1), groups=72, bias=False)\n            (bn2): BatchNorm2d(72, eps=1e-05, momentum=0.1, affine=True, track_running_stats=True)\n            (act2): ReLU(inplace=True)\n            (conv_pwl): Conv2d(72, 24, kernel_size=(1, 1), stride=(1, 1), bias=False)\n            (bn3): BatchNorm2d(24, eps=1e-05, momentum=0.1, affine=True, track_running_stats=True)\n          )\n        )\n        (2): Sequential(\n          (0): InvertedResidual(\n            (conv_pw): Conv2d(24, 72, kernel_size=(1, 1), stride=(1, 1), bias=False)\n            (bn1): BatchNorm2d(72, eps=1e-05, momentum=0.1, affine=True, track_running_stats=True)\n            (act1): ReLU(inplace=True)\n            (conv_dw): Conv2d(72, 72, kernel_size=(5, 5), stride=(2, 2), padding=(2, 2), groups=72, bias=False)\n            (bn2): BatchNorm2d(72, eps=1e-05, momentum=0.1, affine=True, track_running_stats=True)\n            (act2): ReLU(inplace=True)\n            (se): SqueezeExcite(\n              (conv_reduce): Conv2d(72, 24, kernel_size=(1, 1), stride=(1, 1))\n              (act1): ReLU(inplace=True)\n              (conv_expand): Conv2d(24, 72, kernel_size=(1, 1), stride=(1, 1))\n            )\n            (conv_pwl): Conv2d(72, 40, kernel_size=(1, 1), stride=(1, 1), bias=False)\n            (bn3): BatchNorm2d(40, eps=1e-05, momentum=0.1, affine=True, track_running_stats=True)\n          )\n          (1): InvertedResidual(\n            (conv_pw): Conv2d(40, 120, kernel_size=(1, 1), stride=(1, 1), bias=False)\n            (bn1): BatchNorm2d(120, eps=1e-05, momentum=0.1, affine=True, track_running_stats=True)\n            (act1): ReLU(inplace=True)\n            (conv_dw): Conv2d(120, 120, kernel_size=(5, 5), stride=(1, 1), padding=(2, 2), groups=120, bias=False)\n            (bn2): BatchNorm2d(120, eps=1e-05, momentum=0.1, affine=True, track_running_stats=True)\n            (act2): ReLU(inplace=True)\n            (se): SqueezeExcite(\n              (conv_reduce): Conv2d(120, 32, kernel_size=(1, 1), stride=(1, 1))\n              (act1): ReLU(inplace=True)\n              (conv_expand): Conv2d(32, 120, kernel_size=(1, 1), stride=(1, 1))\n            )\n            (conv_pwl): Conv2d(120, 40, kernel_size=(1, 1), stride=(1, 1), bias=False)\n            (bn3): BatchNorm2d(40, eps=1e-05, momentum=0.1, affine=True, track_running_stats=True)\n          )\n          (2): InvertedResidual(\n            (conv_pw): Conv2d(40, 120, kernel_size=(1, 1), stride=(1, 1), bias=False)\n            (bn1): BatchNorm2d(120, eps=1e-05, momentum=0.1, affine=True, track_running_stats=True)\n            (act1): ReLU(inplace=True)\n            (conv_dw): Conv2d(120, 120, kernel_size=(5, 5), stride=(1, 1), padding=(2, 2), groups=120, bias=False)\n            (bn2): BatchNorm2d(120, eps=1e-05, momentum=0.1, affine=True, track_running_stats=True)\n            (act2): ReLU(inplace=True)\n            (se): SqueezeExcite(\n              (conv_reduce): Conv2d(120, 32, kernel_size=(1, 1), stride=(1, 1))\n              (act1): ReLU(inplace=True)\n              (conv_expand): Conv2d(32, 120, kernel_size=(1, 1), stride=(1, 1))\n            )\n            (conv_pwl): Conv2d(120, 40, kernel_size=(1, 1), stride=(1, 1), bias=False)\n            (bn3): BatchNorm2d(40, eps=1e-05, momentum=0.1, affine=True, track_running_stats=True)\n          )\n        )\n        (3): Sequential(\n          (0): InvertedResidual(\n            (conv_pw): Conv2d(40, 240, kernel_size=(1, 1), stride=(1, 1), bias=False)\n            (bn1): BatchNorm2d(240, eps=1e-05, momentum=0.1, affine=True, track_running_stats=True)\n            (act1): HardSwishMe()\n            (conv_dw): Conv2d(240, 240, kernel_size=(3, 3), stride=(2, 2), padding=(1, 1), groups=240, bias=False)\n            (bn2): BatchNorm2d(240, eps=1e-05, momentum=0.1, affine=True, track_running_stats=True)\n            (act2): HardSwishMe()\n            (conv_pwl): Conv2d(240, 80, kernel_size=(1, 1), stride=(1, 1), bias=False)\n            (bn3): BatchNorm2d(80, eps=1e-05, momentum=0.1, affine=True, track_running_stats=True)\n          )\n          (1): InvertedResidual(\n            (conv_pw): Conv2d(80, 200, kernel_size=(1, 1), stride=(1, 1), bias=False)\n            (bn1): BatchNorm2d(200, eps=1e-05, momentum=0.1, affine=True, track_running_stats=True)\n            (act1): HardSwishMe()\n            (conv_dw): Conv2d(200, 200, kernel_size=(3, 3), stride=(1, 1), padding=(1, 1), groups=200, bias=False)\n            (bn2): BatchNorm2d(200, eps=1e-05, momentum=0.1, affine=True, track_running_stats=True)\n            (act2): HardSwishMe()\n            (conv_pwl): Conv2d(200, 80, kernel_size=(1, 1), stride=(1, 1), bias=False)\n            (bn3): BatchNorm2d(80, eps=1e-05, momentum=0.1, affine=True, track_running_stats=True)\n          )\n          (2): InvertedResidual(\n            (conv_pw): Conv2d(80, 184, kernel_size=(1, 1), stride=(1, 1), bias=False)\n            (bn1): BatchNorm2d(184, eps=1e-05, momentum=0.1, affine=True, track_running_stats=True)\n            (act1): HardSwishMe()\n            (conv_dw): Conv2d(184, 184, kernel_size=(3, 3), stride=(1, 1), padding=(1, 1), groups=184, bias=False)\n            (bn2): BatchNorm2d(184, eps=1e-05, momentum=0.1, affine=True, track_running_stats=True)\n            (act2): HardSwishMe()\n            (conv_pwl): Conv2d(184, 80, kernel_size=(1, 1), stride=(1, 1), bias=False)\n            (bn3): BatchNorm2d(80, eps=1e-05, momentum=0.1, affine=True, track_running_stats=True)\n          )\n          (3): InvertedResidual(\n            (conv_pw): Conv2d(80, 184, kernel_size=(1, 1), stride=(1, 1), bias=False)\n            (bn1): BatchNorm2d(184, eps=1e-05, momentum=0.1, affine=True, track_running_stats=True)\n            (act1): HardSwishMe()\n            (conv_dw): Conv2d(184, 184, kernel_size=(3, 3), stride=(1, 1), padding=(1, 1), groups=184, bias=False)\n            (bn2): BatchNorm2d(184, eps=1e-05, momentum=0.1, affine=True, track_running_stats=True)\n            (act2): HardSwishMe()\n            (conv_pwl): Conv2d(184, 80, kernel_size=(1, 1), stride=(1, 1), bias=False)\n            (bn3): BatchNorm2d(80, eps=1e-05, momentum=0.1, affine=True, track_running_stats=True)\n          )\n        )\n        (4): Sequential(\n          (0): InvertedResidual(\n            (conv_pw): Conv2d(80, 480, kernel_size=(1, 1), stride=(1, 1), bias=False)\n            (bn1): BatchNorm2d(480, eps=1e-05, momentum=0.1, affine=True, track_running_stats=True)\n            (act1): HardSwishMe()\n            (conv_dw): Conv2d(480, 480, kernel_size=(3, 3), stride=(1, 1), padding=(1, 1), groups=480, bias=False)\n            (bn2): BatchNorm2d(480, eps=1e-05, momentum=0.1, affine=True, track_running_stats=True)\n            (act2): HardSwishMe()\n            (se): SqueezeExcite(\n              (conv_reduce): Conv2d(480, 120, kernel_size=(1, 1), stride=(1, 1))\n              (act1): ReLU(inplace=True)\n              (conv_expand): Conv2d(120, 480, kernel_size=(1, 1), stride=(1, 1))\n            )\n            (conv_pwl): Conv2d(480, 112, kernel_size=(1, 1), stride=(1, 1), bias=False)\n            (bn3): BatchNorm2d(112, eps=1e-05, momentum=0.1, affine=True, track_running_stats=True)\n          )\n          (1): InvertedResidual(\n            (conv_pw): Conv2d(112, 672, kernel_size=(1, 1), stride=(1, 1), bias=False)\n            (bn1): BatchNorm2d(672, eps=1e-05, momentum=0.1, affine=True, track_running_stats=True)\n            (act1): HardSwishMe()\n            (conv_dw): Conv2d(672, 672, kernel_size=(3, 3), stride=(1, 1), padding=(1, 1), groups=672, bias=False)\n            (bn2): BatchNorm2d(672, eps=1e-05, momentum=0.1, affine=True, track_running_stats=True)\n            (act2): HardSwishMe()\n            (se): SqueezeExcite(\n              (conv_reduce): Conv2d(672, 168, kernel_size=(1, 1), stride=(1, 1))\n              (act1): ReLU(inplace=True)\n              (conv_expand): Conv2d(168, 672, kernel_size=(1, 1), stride=(1, 1))\n            )\n            (conv_pwl): Conv2d(672, 112, kernel_size=(1, 1), stride=(1, 1), bias=False)\n            (bn3): BatchNorm2d(112, eps=1e-05, momentum=0.1, affine=True, track_running_stats=True)\n          )\n        )\n        (5): Sequential(\n          (0): InvertedResidual(\n            (conv_pw): Conv2d(112, 672, kernel_size=(1, 1), stride=(1, 1), bias=False)\n            (bn1): BatchNorm2d(672, eps=1e-05, momentum=0.1, affine=True, track_running_stats=True)\n            (act1): HardSwishMe()\n            (conv_dw): Conv2d(672, 672, kernel_size=(5, 5), stride=(2, 2), padding=(2, 2), groups=672, bias=False)\n            (bn2): BatchNorm2d(672, eps=1e-05, momentum=0.1, affine=True, track_running_stats=True)\n            (act2): HardSwishMe()\n            (se): SqueezeExcite(\n              (conv_reduce): Conv2d(672, 168, kernel_size=(1, 1), stride=(1, 1))\n              (act1): ReLU(inplace=True)\n              (conv_expand): Conv2d(168, 672, kernel_size=(1, 1), stride=(1, 1))\n            )\n            (conv_pwl): Conv2d(672, 160, kernel_size=(1, 1), stride=(1, 1), bias=False)\n            (bn3): BatchNorm2d(160, eps=1e-05, momentum=0.1, affine=True, track_running_stats=True)\n          )\n          (1): InvertedResidual(\n            (conv_pw): Conv2d(160, 960, kernel_size=(1, 1), stride=(1, 1), bias=False)\n            (bn1): BatchNorm2d(960, eps=1e-05, momentum=0.1, affine=True, track_running_stats=True)\n            (act1): HardSwishMe()\n            (conv_dw): Conv2d(960, 960, kernel_size=(5, 5), stride=(1, 1), padding=(2, 2), groups=960, bias=False)\n            (bn2): BatchNorm2d(960, eps=1e-05, momentum=0.1, affine=True, track_running_stats=True)\n            (act2): HardSwishMe()\n            (se): SqueezeExcite(\n              (conv_reduce): Conv2d(960, 240, kernel_size=(1, 1), stride=(1, 1))\n              (act1): ReLU(inplace=True)\n              (conv_expand): Conv2d(240, 960, kernel_size=(1, 1), stride=(1, 1))\n            )\n            (conv_pwl): Conv2d(960, 160, kernel_size=(1, 1), stride=(1, 1), bias=False)\n            (bn3): BatchNorm2d(160, eps=1e-05, momentum=0.1, affine=True, track_running_stats=True)\n          )\n          (2): InvertedResidual(\n            (conv_pw): Conv2d(160, 960, kernel_size=(1, 1), stride=(1, 1), bias=False)\n            (bn1): BatchNorm2d(960, eps=1e-05, momentum=0.1, affine=True, track_running_stats=True)\n            (act1): HardSwishMe()\n            (conv_dw): Conv2d(960, 960, kernel_size=(5, 5), stride=(1, 1), padding=(2, 2), groups=960, bias=False)\n            (bn2): BatchNorm2d(960, eps=1e-05, momentum=0.1, affine=True, track_running_stats=True)\n            (act2): HardSwishMe()\n            (se): SqueezeExcite(\n              (conv_reduce): Conv2d(960, 240, kernel_size=(1, 1), stride=(1, 1))\n              (act1): ReLU(inplace=True)\n              (conv_expand): Conv2d(240, 960, kernel_size=(1, 1), stride=(1, 1))\n            )\n            (conv_pwl): Conv2d(960, 160, kernel_size=(1, 1), stride=(1, 1), bias=False)\n            (bn3): BatchNorm2d(160, eps=1e-05, momentum=0.1, affine=True, track_running_stats=True)\n          )\n        )\n        (6): Sequential(\n          (0): ConvBnAct(\n            (conv): Conv2d(160, 960, kernel_size=(1, 1), stride=(1, 1), bias=False)\n            (bn1): BatchNorm2d(960, eps=1e-05, momentum=0.1, affine=True, track_running_stats=True)\n            (act1): HardSwishMe()\n          )\n        )\n      )\n      (global_pool): SelectAdaptivePool2d (pool_type=avg, flatten=False)\n      (conv_head): Conv2d(960, 1280, kernel_size=(1, 1), stride=(1, 1))\n      (act2): HardSwishMe()\n      (classifier): Linear(in_features=1280, out_features=512, bias=True)\n    )\n    (1): BatchNorm1d(512, eps=1e-05, momentum=0.1, affine=True, track_running_stats=True)\n    (2): ReLU()\n  )\n  (gender_head): Sequential(\n    (0): Dropout(p=0.2, inplace=False)\n    (1): Linear(in_features=512, out_features=1, bias=True)\n    (2): Sigmoid()\n  )\n  (age_head): Sequential(\n    (0): Linear(in_features=512, out_features=116, bias=True)\n  )\n)", "parameters": [], "output_shape": [[16, 116], [16, 1]], "num_parameters": []}, {"name": "module", "id": 140425422766144, "class_name": "Net(\n  (backbone): Sequential(\n    (0): MobileNetV3(\n      (conv_stem): Conv2d(3, 16, kernel_size=(3, 3), stride=(2, 2), padding=(1, 1), bias=False)\n      (bn1): BatchNorm2d(16, eps=1e-05, momentum=0.1, affine=True, track_running_stats=True)\n      (act1): HardSwishMe()\n      (blocks): Sequential(\n        (0): Sequential(\n          (0): DepthwiseSeparableConv(\n            (conv_dw): Conv2d(16, 16, kernel_size=(3, 3), stride=(1, 1), padding=(1, 1), groups=16, bias=False)\n            (bn1): BatchNorm2d(16, eps=1e-05, momentum=0.1, affine=True, track_running_stats=True)\n            (act1): ReLU(inplace=True)\n            (conv_pw): Conv2d(16, 16, kernel_size=(1, 1), stride=(1, 1), bias=False)\n            (bn2): BatchNorm2d(16, eps=1e-05, momentum=0.1, affine=True, track_running_stats=True)\n            (act2): Identity()\n          )\n        )\n        (1): Sequential(\n          (0): InvertedResidual(\n            (conv_pw): Conv2d(16, 64, kernel_size=(1, 1), stride=(1, 1), bias=False)\n            (bn1): BatchNorm2d(64, eps=1e-05, momentum=0.1, affine=True, track_running_stats=True)\n            (act1): ReLU(inplace=True)\n            (conv_dw): Conv2d(64, 64, kernel_size=(3, 3), stride=(2, 2), padding=(1, 1), groups=64, bias=False)\n            (bn2): BatchNorm2d(64, eps=1e-05, momentum=0.1, affine=True, track_running_stats=True)\n            (act2): ReLU(inplace=True)\n            (conv_pwl): Conv2d(64, 24, kernel_size=(1, 1), stride=(1, 1), bias=False)\n            (bn3): BatchNorm2d(24, eps=1e-05, momentum=0.1, affine=True, track_running_stats=True)\n          )\n          (1): InvertedResidual(\n            (conv_pw): Conv2d(24, 72, kernel_size=(1, 1), stride=(1, 1), bias=False)\n            (bn1): BatchNorm2d(72, eps=1e-05, momentum=0.1, affine=True, track_running_stats=True)\n            (act1): ReLU(inplace=True)\n            (conv_dw): Conv2d(72, 72, kernel_size=(3, 3), stride=(1, 1), padding=(1, 1), groups=72, bias=False)\n            (bn2): BatchNorm2d(72, eps=1e-05, momentum=0.1, affine=True, track_running_stats=True)\n            (act2): ReLU(inplace=True)\n            (conv_pwl): Conv2d(72, 24, kernel_size=(1, 1), stride=(1, 1), bias=False)\n            (bn3): BatchNorm2d(24, eps=1e-05, momentum=0.1, affine=True, track_running_stats=True)\n          )\n        )\n        (2): Sequential(\n          (0): InvertedResidual(\n            (conv_pw): Conv2d(24, 72, kernel_size=(1, 1), stride=(1, 1), bias=False)\n            (bn1): BatchNorm2d(72, eps=1e-05, momentum=0.1, affine=True, track_running_stats=True)\n            (act1): ReLU(inplace=True)\n            (conv_dw): Conv2d(72, 72, kernel_size=(5, 5), stride=(2, 2), padding=(2, 2), groups=72, bias=False)\n            (bn2): BatchNorm2d(72, eps=1e-05, momentum=0.1, affine=True, track_running_stats=True)\n            (act2): ReLU(inplace=True)\n            (se): SqueezeExcite(\n              (conv_reduce): Conv2d(72, 24, kernel_size=(1, 1), stride=(1, 1))\n              (act1): ReLU(inplace=True)\n              (conv_expand): Conv2d(24, 72, kernel_size=(1, 1), stride=(1, 1))\n            )\n            (conv_pwl): Conv2d(72, 40, kernel_size=(1, 1), stride=(1, 1), bias=False)\n            (bn3): BatchNorm2d(40, eps=1e-05, momentum=0.1, affine=True, track_running_stats=True)\n          )\n          (1): InvertedResidual(\n            (conv_pw): Conv2d(40, 120, kernel_size=(1, 1), stride=(1, 1), bias=False)\n            (bn1): BatchNorm2d(120, eps=1e-05, momentum=0.1, affine=True, track_running_stats=True)\n            (act1): ReLU(inplace=True)\n            (conv_dw): Conv2d(120, 120, kernel_size=(5, 5), stride=(1, 1), padding=(2, 2), groups=120, bias=False)\n            (bn2): BatchNorm2d(120, eps=1e-05, momentum=0.1, affine=True, track_running_stats=True)\n            (act2): ReLU(inplace=True)\n            (se): SqueezeExcite(\n              (conv_reduce): Conv2d(120, 32, kernel_size=(1, 1), stride=(1, 1))\n              (act1): ReLU(inplace=True)\n              (conv_expand): Conv2d(32, 120, kernel_size=(1, 1), stride=(1, 1))\n            )\n            (conv_pwl): Conv2d(120, 40, kernel_size=(1, 1), stride=(1, 1), bias=False)\n            (bn3): BatchNorm2d(40, eps=1e-05, momentum=0.1, affine=True, track_running_stats=True)\n          )\n          (2): InvertedResidual(\n            (conv_pw): Conv2d(40, 120, kernel_size=(1, 1), stride=(1, 1), bias=False)\n            (bn1): BatchNorm2d(120, eps=1e-05, momentum=0.1, affine=True, track_running_stats=True)\n            (act1): ReLU(inplace=True)\n            (conv_dw): Conv2d(120, 120, kernel_size=(5, 5), stride=(1, 1), padding=(2, 2), groups=120, bias=False)\n            (bn2): BatchNorm2d(120, eps=1e-05, momentum=0.1, affine=True, track_running_stats=True)\n            (act2): ReLU(inplace=True)\n            (se): SqueezeExcite(\n              (conv_reduce): Conv2d(120, 32, kernel_size=(1, 1), stride=(1, 1))\n              (act1): ReLU(inplace=True)\n              (conv_expand): Conv2d(32, 120, kernel_size=(1, 1), stride=(1, 1))\n            )\n            (conv_pwl): Conv2d(120, 40, kernel_size=(1, 1), stride=(1, 1), bias=False)\n            (bn3): BatchNorm2d(40, eps=1e-05, momentum=0.1, affine=True, track_running_stats=True)\n          )\n        )\n        (3): Sequential(\n          (0): InvertedResidual(\n            (conv_pw): Conv2d(40, 240, kernel_size=(1, 1), stride=(1, 1), bias=False)\n            (bn1): BatchNorm2d(240, eps=1e-05, momentum=0.1, affine=True, track_running_stats=True)\n            (act1): HardSwishMe()\n            (conv_dw): Conv2d(240, 240, kernel_size=(3, 3), stride=(2, 2), padding=(1, 1), groups=240, bias=False)\n            (bn2): BatchNorm2d(240, eps=1e-05, momentum=0.1, affine=True, track_running_stats=True)\n            (act2): HardSwishMe()\n            (conv_pwl): Conv2d(240, 80, kernel_size=(1, 1), stride=(1, 1), bias=False)\n            (bn3): BatchNorm2d(80, eps=1e-05, momentum=0.1, affine=True, track_running_stats=True)\n          )\n          (1): InvertedResidual(\n            (conv_pw): Conv2d(80, 200, kernel_size=(1, 1), stride=(1, 1), bias=False)\n            (bn1): BatchNorm2d(200, eps=1e-05, momentum=0.1, affine=True, track_running_stats=True)\n            (act1): HardSwishMe()\n            (conv_dw): Conv2d(200, 200, kernel_size=(3, 3), stride=(1, 1), padding=(1, 1), groups=200, bias=False)\n            (bn2): BatchNorm2d(200, eps=1e-05, momentum=0.1, affine=True, track_running_stats=True)\n            (act2): HardSwishMe()\n            (conv_pwl): Conv2d(200, 80, kernel_size=(1, 1), stride=(1, 1), bias=False)\n            (bn3): BatchNorm2d(80, eps=1e-05, momentum=0.1, affine=True, track_running_stats=True)\n          )\n          (2): InvertedResidual(\n            (conv_pw): Conv2d(80, 184, kernel_size=(1, 1), stride=(1, 1), bias=False)\n            (bn1): BatchNorm2d(184, eps=1e-05, momentum=0.1, affine=True, track_running_stats=True)\n            (act1): HardSwishMe()\n            (conv_dw): Conv2d(184, 184, kernel_size=(3, 3), stride=(1, 1), padding=(1, 1), groups=184, bias=False)\n            (bn2): BatchNorm2d(184, eps=1e-05, momentum=0.1, affine=True, track_running_stats=True)\n            (act2): HardSwishMe()\n            (conv_pwl): Conv2d(184, 80, kernel_size=(1, 1), stride=(1, 1), bias=False)\n            (bn3): BatchNorm2d(80, eps=1e-05, momentum=0.1, affine=True, track_running_stats=True)\n          )\n          (3): InvertedResidual(\n            (conv_pw): Conv2d(80, 184, kernel_size=(1, 1), stride=(1, 1), bias=False)\n            (bn1): BatchNorm2d(184, eps=1e-05, momentum=0.1, affine=True, track_running_stats=True)\n            (act1): HardSwishMe()\n            (conv_dw): Conv2d(184, 184, kernel_size=(3, 3), stride=(1, 1), padding=(1, 1), groups=184, bias=False)\n            (bn2): BatchNorm2d(184, eps=1e-05, momentum=0.1, affine=True, track_running_stats=True)\n            (act2): HardSwishMe()\n            (conv_pwl): Conv2d(184, 80, kernel_size=(1, 1), stride=(1, 1), bias=False)\n            (bn3): BatchNorm2d(80, eps=1e-05, momentum=0.1, affine=True, track_running_stats=True)\n          )\n        )\n        (4): Sequential(\n          (0): InvertedResidual(\n            (conv_pw): Conv2d(80, 480, kernel_size=(1, 1), stride=(1, 1), bias=False)\n            (bn1): BatchNorm2d(480, eps=1e-05, momentum=0.1, affine=True, track_running_stats=True)\n            (act1): HardSwishMe()\n            (conv_dw): Conv2d(480, 480, kernel_size=(3, 3), stride=(1, 1), padding=(1, 1), groups=480, bias=False)\n            (bn2): BatchNorm2d(480, eps=1e-05, momentum=0.1, affine=True, track_running_stats=True)\n            (act2): HardSwishMe()\n            (se): SqueezeExcite(\n              (conv_reduce): Conv2d(480, 120, kernel_size=(1, 1), stride=(1, 1))\n              (act1): ReLU(inplace=True)\n              (conv_expand): Conv2d(120, 480, kernel_size=(1, 1), stride=(1, 1))\n            )\n            (conv_pwl): Conv2d(480, 112, kernel_size=(1, 1), stride=(1, 1), bias=False)\n            (bn3): BatchNorm2d(112, eps=1e-05, momentum=0.1, affine=True, track_running_stats=True)\n          )\n          (1): InvertedResidual(\n            (conv_pw): Conv2d(112, 672, kernel_size=(1, 1), stride=(1, 1), bias=False)\n            (bn1): BatchNorm2d(672, eps=1e-05, momentum=0.1, affine=True, track_running_stats=True)\n            (act1): HardSwishMe()\n            (conv_dw): Conv2d(672, 672, kernel_size=(3, 3), stride=(1, 1), padding=(1, 1), groups=672, bias=False)\n            (bn2): BatchNorm2d(672, eps=1e-05, momentum=0.1, affine=True, track_running_stats=True)\n            (act2): HardSwishMe()\n            (se): SqueezeExcite(\n              (conv_reduce): Conv2d(672, 168, kernel_size=(1, 1), stride=(1, 1))\n              (act1): ReLU(inplace=True)\n              (conv_expand): Conv2d(168, 672, kernel_size=(1, 1), stride=(1, 1))\n            )\n            (conv_pwl): Conv2d(672, 112, kernel_size=(1, 1), stride=(1, 1), bias=False)\n            (bn3): BatchNorm2d(112, eps=1e-05, momentum=0.1, affine=True, track_running_stats=True)\n          )\n        )\n        (5): Sequential(\n          (0): InvertedResidual(\n            (conv_pw): Conv2d(112, 672, kernel_size=(1, 1), stride=(1, 1), bias=False)\n            (bn1): BatchNorm2d(672, eps=1e-05, momentum=0.1, affine=True, track_running_stats=True)\n            (act1): HardSwishMe()\n            (conv_dw): Conv2d(672, 672, kernel_size=(5, 5), stride=(2, 2), padding=(2, 2), groups=672, bias=False)\n            (bn2): BatchNorm2d(672, eps=1e-05, momentum=0.1, affine=True, track_running_stats=True)\n            (act2): HardSwishMe()\n            (se): SqueezeExcite(\n              (conv_reduce): Conv2d(672, 168, kernel_size=(1, 1), stride=(1, 1))\n              (act1): ReLU(inplace=True)\n              (conv_expand): Conv2d(168, 672, kernel_size=(1, 1), stride=(1, 1))\n            )\n            (conv_pwl): Conv2d(672, 160, kernel_size=(1, 1), stride=(1, 1), bias=False)\n            (bn3): BatchNorm2d(160, eps=1e-05, momentum=0.1, affine=True, track_running_stats=True)\n          )\n          (1): InvertedResidual(\n            (conv_pw): Conv2d(160, 960, kernel_size=(1, 1), stride=(1, 1), bias=False)\n            (bn1): BatchNorm2d(960, eps=1e-05, momentum=0.1, affine=True, track_running_stats=True)\n            (act1): HardSwishMe()\n            (conv_dw): Conv2d(960, 960, kernel_size=(5, 5), stride=(1, 1), padding=(2, 2), groups=960, bias=False)\n            (bn2): BatchNorm2d(960, eps=1e-05, momentum=0.1, affine=True, track_running_stats=True)\n            (act2): HardSwishMe()\n            (se): SqueezeExcite(\n              (conv_reduce): Conv2d(960, 240, kernel_size=(1, 1), stride=(1, 1))\n              (act1): ReLU(inplace=True)\n              (conv_expand): Conv2d(240, 960, kernel_size=(1, 1), stride=(1, 1))\n            )\n            (conv_pwl): Conv2d(960, 160, kernel_size=(1, 1), stride=(1, 1), bias=False)\n            (bn3): BatchNorm2d(160, eps=1e-05, momentum=0.1, affine=True, track_running_stats=True)\n          )\n          (2): InvertedResidual(\n            (conv_pw): Conv2d(160, 960, kernel_size=(1, 1), stride=(1, 1), bias=False)\n            (bn1): BatchNorm2d(960, eps=1e-05, momentum=0.1, affine=True, track_running_stats=True)\n            (act1): HardSwishMe()\n            (conv_dw): Conv2d(960, 960, kernel_size=(5, 5), stride=(1, 1), padding=(2, 2), groups=960, bias=False)\n            (bn2): BatchNorm2d(960, eps=1e-05, momentum=0.1, affine=True, track_running_stats=True)\n            (act2): HardSwishMe()\n            (se): SqueezeExcite(\n              (conv_reduce): Conv2d(960, 240, kernel_size=(1, 1), stride=(1, 1))\n              (act1): ReLU(inplace=True)\n              (conv_expand): Conv2d(240, 960, kernel_size=(1, 1), stride=(1, 1))\n            )\n            (conv_pwl): Conv2d(960, 160, kernel_size=(1, 1), stride=(1, 1), bias=False)\n            (bn3): BatchNorm2d(160, eps=1e-05, momentum=0.1, affine=True, track_running_stats=True)\n          )\n        )\n        (6): Sequential(\n          (0): ConvBnAct(\n            (conv): Conv2d(160, 960, kernel_size=(1, 1), stride=(1, 1), bias=False)\n            (bn1): BatchNorm2d(960, eps=1e-05, momentum=0.1, affine=True, track_running_stats=True)\n            (act1): HardSwishMe()\n          )\n        )\n      )\n      (global_pool): SelectAdaptivePool2d (pool_type=avg, flatten=False)\n      (conv_head): Conv2d(960, 1280, kernel_size=(1, 1), stride=(1, 1))\n      (act2): HardSwishMe()\n      (classifier): Linear(in_features=1280, out_features=512, bias=True)\n    )\n    (1): BatchNorm1d(512, eps=1e-05, momentum=0.1, affine=True, track_running_stats=True)\n    (2): ReLU()\n  )\n  (gender_head): Sequential(\n    (0): Dropout(p=0.2, inplace=False)\n    (1): Linear(in_features=512, out_features=1, bias=True)\n    (2): Sigmoid()\n  )\n  (age_head): Sequential(\n    (0): Linear(in_features=512, out_features=116, bias=True)\n  )\n)", "parameters": [], "output_shape": [[16, 116], [16, 1]], "num_parameters": []}, {"name": "module", "id": 140425428749904, "class_name": "Net(\n  (backbone): Sequential(\n    (0): MobileNetV3(\n      (conv_stem): Conv2d(3, 16, kernel_size=(3, 3), stride=(2, 2), padding=(1, 1), bias=False)\n      (bn1): BatchNorm2d(16, eps=1e-05, momentum=0.1, affine=True, track_running_stats=True)\n      (act1): HardSwishMe()\n      (blocks): Sequential(\n        (0): Sequential(\n          (0): DepthwiseSeparableConv(\n            (conv_dw): Conv2d(16, 16, kernel_size=(3, 3), stride=(1, 1), padding=(1, 1), groups=16, bias=False)\n            (bn1): BatchNorm2d(16, eps=1e-05, momentum=0.1, affine=True, track_running_stats=True)\n            (act1): ReLU(inplace=True)\n            (conv_pw): Conv2d(16, 16, kernel_size=(1, 1), stride=(1, 1), bias=False)\n            (bn2): BatchNorm2d(16, eps=1e-05, momentum=0.1, affine=True, track_running_stats=True)\n            (act2): Identity()\n          )\n        )\n        (1): Sequential(\n          (0): InvertedResidual(\n            (conv_pw): Conv2d(16, 64, kernel_size=(1, 1), stride=(1, 1), bias=False)\n            (bn1): BatchNorm2d(64, eps=1e-05, momentum=0.1, affine=True, track_running_stats=True)\n            (act1): ReLU(inplace=True)\n            (conv_dw): Conv2d(64, 64, kernel_size=(3, 3), stride=(2, 2), padding=(1, 1), groups=64, bias=False)\n            (bn2): BatchNorm2d(64, eps=1e-05, momentum=0.1, affine=True, track_running_stats=True)\n            (act2): ReLU(inplace=True)\n            (conv_pwl): Conv2d(64, 24, kernel_size=(1, 1), stride=(1, 1), bias=False)\n            (bn3): BatchNorm2d(24, eps=1e-05, momentum=0.1, affine=True, track_running_stats=True)\n          )\n          (1): InvertedResidual(\n            (conv_pw): Conv2d(24, 72, kernel_size=(1, 1), stride=(1, 1), bias=False)\n            (bn1): BatchNorm2d(72, eps=1e-05, momentum=0.1, affine=True, track_running_stats=True)\n            (act1): ReLU(inplace=True)\n            (conv_dw): Conv2d(72, 72, kernel_size=(3, 3), stride=(1, 1), padding=(1, 1), groups=72, bias=False)\n            (bn2): BatchNorm2d(72, eps=1e-05, momentum=0.1, affine=True, track_running_stats=True)\n            (act2): ReLU(inplace=True)\n            (conv_pwl): Conv2d(72, 24, kernel_size=(1, 1), stride=(1, 1), bias=False)\n            (bn3): BatchNorm2d(24, eps=1e-05, momentum=0.1, affine=True, track_running_stats=True)\n          )\n        )\n        (2): Sequential(\n          (0): InvertedResidual(\n            (conv_pw): Conv2d(24, 72, kernel_size=(1, 1), stride=(1, 1), bias=False)\n            (bn1): BatchNorm2d(72, eps=1e-05, momentum=0.1, affine=True, track_running_stats=True)\n            (act1): ReLU(inplace=True)\n            (conv_dw): Conv2d(72, 72, kernel_size=(5, 5), stride=(2, 2), padding=(2, 2), groups=72, bias=False)\n            (bn2): BatchNorm2d(72, eps=1e-05, momentum=0.1, affine=True, track_running_stats=True)\n            (act2): ReLU(inplace=True)\n            (se): SqueezeExcite(\n              (conv_reduce): Conv2d(72, 24, kernel_size=(1, 1), stride=(1, 1))\n              (act1): ReLU(inplace=True)\n              (conv_expand): Conv2d(24, 72, kernel_size=(1, 1), stride=(1, 1))\n            )\n            (conv_pwl): Conv2d(72, 40, kernel_size=(1, 1), stride=(1, 1), bias=False)\n            (bn3): BatchNorm2d(40, eps=1e-05, momentum=0.1, affine=True, track_running_stats=True)\n          )\n          (1): InvertedResidual(\n            (conv_pw): Conv2d(40, 120, kernel_size=(1, 1), stride=(1, 1), bias=False)\n            (bn1): BatchNorm2d(120, eps=1e-05, momentum=0.1, affine=True, track_running_stats=True)\n            (act1): ReLU(inplace=True)\n            (conv_dw): Conv2d(120, 120, kernel_size=(5, 5), stride=(1, 1), padding=(2, 2), groups=120, bias=False)\n            (bn2): BatchNorm2d(120, eps=1e-05, momentum=0.1, affine=True, track_running_stats=True)\n            (act2): ReLU(inplace=True)\n            (se): SqueezeExcite(\n              (conv_reduce): Conv2d(120, 32, kernel_size=(1, 1), stride=(1, 1))\n              (act1): ReLU(inplace=True)\n              (conv_expand): Conv2d(32, 120, kernel_size=(1, 1), stride=(1, 1))\n            )\n            (conv_pwl): Conv2d(120, 40, kernel_size=(1, 1), stride=(1, 1), bias=False)\n            (bn3): BatchNorm2d(40, eps=1e-05, momentum=0.1, affine=True, track_running_stats=True)\n          )\n          (2): InvertedResidual(\n            (conv_pw): Conv2d(40, 120, kernel_size=(1, 1), stride=(1, 1), bias=False)\n            (bn1): BatchNorm2d(120, eps=1e-05, momentum=0.1, affine=True, track_running_stats=True)\n            (act1): ReLU(inplace=True)\n            (conv_dw): Conv2d(120, 120, kernel_size=(5, 5), stride=(1, 1), padding=(2, 2), groups=120, bias=False)\n            (bn2): BatchNorm2d(120, eps=1e-05, momentum=0.1, affine=True, track_running_stats=True)\n            (act2): ReLU(inplace=True)\n            (se): SqueezeExcite(\n              (conv_reduce): Conv2d(120, 32, kernel_size=(1, 1), stride=(1, 1))\n              (act1): ReLU(inplace=True)\n              (conv_expand): Conv2d(32, 120, kernel_size=(1, 1), stride=(1, 1))\n            )\n            (conv_pwl): Conv2d(120, 40, kernel_size=(1, 1), stride=(1, 1), bias=False)\n            (bn3): BatchNorm2d(40, eps=1e-05, momentum=0.1, affine=True, track_running_stats=True)\n          )\n        )\n        (3): Sequential(\n          (0): InvertedResidual(\n            (conv_pw): Conv2d(40, 240, kernel_size=(1, 1), stride=(1, 1), bias=False)\n            (bn1): BatchNorm2d(240, eps=1e-05, momentum=0.1, affine=True, track_running_stats=True)\n            (act1): HardSwishMe()\n            (conv_dw): Conv2d(240, 240, kernel_size=(3, 3), stride=(2, 2), padding=(1, 1), groups=240, bias=False)\n            (bn2): BatchNorm2d(240, eps=1e-05, momentum=0.1, affine=True, track_running_stats=True)\n            (act2): HardSwishMe()\n            (conv_pwl): Conv2d(240, 80, kernel_size=(1, 1), stride=(1, 1), bias=False)\n            (bn3): BatchNorm2d(80, eps=1e-05, momentum=0.1, affine=True, track_running_stats=True)\n          )\n          (1): InvertedResidual(\n            (conv_pw): Conv2d(80, 200, kernel_size=(1, 1), stride=(1, 1), bias=False)\n            (bn1): BatchNorm2d(200, eps=1e-05, momentum=0.1, affine=True, track_running_stats=True)\n            (act1): HardSwishMe()\n            (conv_dw): Conv2d(200, 200, kernel_size=(3, 3), stride=(1, 1), padding=(1, 1), groups=200, bias=False)\n            (bn2): BatchNorm2d(200, eps=1e-05, momentum=0.1, affine=True, track_running_stats=True)\n            (act2): HardSwishMe()\n            (conv_pwl): Conv2d(200, 80, kernel_size=(1, 1), stride=(1, 1), bias=False)\n            (bn3): BatchNorm2d(80, eps=1e-05, momentum=0.1, affine=True, track_running_stats=True)\n          )\n          (2): InvertedResidual(\n            (conv_pw): Conv2d(80, 184, kernel_size=(1, 1), stride=(1, 1), bias=False)\n            (bn1): BatchNorm2d(184, eps=1e-05, momentum=0.1, affine=True, track_running_stats=True)\n            (act1): HardSwishMe()\n            (conv_dw): Conv2d(184, 184, kernel_size=(3, 3), stride=(1, 1), padding=(1, 1), groups=184, bias=False)\n            (bn2): BatchNorm2d(184, eps=1e-05, momentum=0.1, affine=True, track_running_stats=True)\n            (act2): HardSwishMe()\n            (conv_pwl): Conv2d(184, 80, kernel_size=(1, 1), stride=(1, 1), bias=False)\n            (bn3): BatchNorm2d(80, eps=1e-05, momentum=0.1, affine=True, track_running_stats=True)\n          )\n          (3): InvertedResidual(\n            (conv_pw): Conv2d(80, 184, kernel_size=(1, 1), stride=(1, 1), bias=False)\n            (bn1): BatchNorm2d(184, eps=1e-05, momentum=0.1, affine=True, track_running_stats=True)\n            (act1): HardSwishMe()\n            (conv_dw): Conv2d(184, 184, kernel_size=(3, 3), stride=(1, 1), padding=(1, 1), groups=184, bias=False)\n            (bn2): BatchNorm2d(184, eps=1e-05, momentum=0.1, affine=True, track_running_stats=True)\n            (act2): HardSwishMe()\n            (conv_pwl): Conv2d(184, 80, kernel_size=(1, 1), stride=(1, 1), bias=False)\n            (bn3): BatchNorm2d(80, eps=1e-05, momentum=0.1, affine=True, track_running_stats=True)\n          )\n        )\n        (4): Sequential(\n          (0): InvertedResidual(\n            (conv_pw): Conv2d(80, 480, kernel_size=(1, 1), stride=(1, 1), bias=False)\n            (bn1): BatchNorm2d(480, eps=1e-05, momentum=0.1, affine=True, track_running_stats=True)\n            (act1): HardSwishMe()\n            (conv_dw): Conv2d(480, 480, kernel_size=(3, 3), stride=(1, 1), padding=(1, 1), groups=480, bias=False)\n            (bn2): BatchNorm2d(480, eps=1e-05, momentum=0.1, affine=True, track_running_stats=True)\n            (act2): HardSwishMe()\n            (se): SqueezeExcite(\n              (conv_reduce): Conv2d(480, 120, kernel_size=(1, 1), stride=(1, 1))\n              (act1): ReLU(inplace=True)\n              (conv_expand): Conv2d(120, 480, kernel_size=(1, 1), stride=(1, 1))\n            )\n            (conv_pwl): Conv2d(480, 112, kernel_size=(1, 1), stride=(1, 1), bias=False)\n            (bn3): BatchNorm2d(112, eps=1e-05, momentum=0.1, affine=True, track_running_stats=True)\n          )\n          (1): InvertedResidual(\n            (conv_pw): Conv2d(112, 672, kernel_size=(1, 1), stride=(1, 1), bias=False)\n            (bn1): BatchNorm2d(672, eps=1e-05, momentum=0.1, affine=True, track_running_stats=True)\n            (act1): HardSwishMe()\n            (conv_dw): Conv2d(672, 672, kernel_size=(3, 3), stride=(1, 1), padding=(1, 1), groups=672, bias=False)\n            (bn2): BatchNorm2d(672, eps=1e-05, momentum=0.1, affine=True, track_running_stats=True)\n            (act2): HardSwishMe()\n            (se): SqueezeExcite(\n              (conv_reduce): Conv2d(672, 168, kernel_size=(1, 1), stride=(1, 1))\n              (act1): ReLU(inplace=True)\n              (conv_expand): Conv2d(168, 672, kernel_size=(1, 1), stride=(1, 1))\n            )\n            (conv_pwl): Conv2d(672, 112, kernel_size=(1, 1), stride=(1, 1), bias=False)\n            (bn3): BatchNorm2d(112, eps=1e-05, momentum=0.1, affine=True, track_running_stats=True)\n          )\n        )\n        (5): Sequential(\n          (0): InvertedResidual(\n            (conv_pw): Conv2d(112, 672, kernel_size=(1, 1), stride=(1, 1), bias=False)\n            (bn1): BatchNorm2d(672, eps=1e-05, momentum=0.1, affine=True, track_running_stats=True)\n            (act1): HardSwishMe()\n            (conv_dw): Conv2d(672, 672, kernel_size=(5, 5), stride=(2, 2), padding=(2, 2), groups=672, bias=False)\n            (bn2): BatchNorm2d(672, eps=1e-05, momentum=0.1, affine=True, track_running_stats=True)\n            (act2): HardSwishMe()\n            (se): SqueezeExcite(\n              (conv_reduce): Conv2d(672, 168, kernel_size=(1, 1), stride=(1, 1))\n              (act1): ReLU(inplace=True)\n              (conv_expand): Conv2d(168, 672, kernel_size=(1, 1), stride=(1, 1))\n            )\n            (conv_pwl): Conv2d(672, 160, kernel_size=(1, 1), stride=(1, 1), bias=False)\n            (bn3): BatchNorm2d(160, eps=1e-05, momentum=0.1, affine=True, track_running_stats=True)\n          )\n          (1): InvertedResidual(\n            (conv_pw): Conv2d(160, 960, kernel_size=(1, 1), stride=(1, 1), bias=False)\n            (bn1): BatchNorm2d(960, eps=1e-05, momentum=0.1, affine=True, track_running_stats=True)\n            (act1): HardSwishMe()\n            (conv_dw): Conv2d(960, 960, kernel_size=(5, 5), stride=(1, 1), padding=(2, 2), groups=960, bias=False)\n            (bn2): BatchNorm2d(960, eps=1e-05, momentum=0.1, affine=True, track_running_stats=True)\n            (act2): HardSwishMe()\n            (se): SqueezeExcite(\n              (conv_reduce): Conv2d(960, 240, kernel_size=(1, 1), stride=(1, 1))\n              (act1): ReLU(inplace=True)\n              (conv_expand): Conv2d(240, 960, kernel_size=(1, 1), stride=(1, 1))\n            )\n            (conv_pwl): Conv2d(960, 160, kernel_size=(1, 1), stride=(1, 1), bias=False)\n            (bn3): BatchNorm2d(160, eps=1e-05, momentum=0.1, affine=True, track_running_stats=True)\n          )\n          (2): InvertedResidual(\n            (conv_pw): Conv2d(160, 960, kernel_size=(1, 1), stride=(1, 1), bias=False)\n            (bn1): BatchNorm2d(960, eps=1e-05, momentum=0.1, affine=True, track_running_stats=True)\n            (act1): HardSwishMe()\n            (conv_dw): Conv2d(960, 960, kernel_size=(5, 5), stride=(1, 1), padding=(2, 2), groups=960, bias=False)\n            (bn2): BatchNorm2d(960, eps=1e-05, momentum=0.1, affine=True, track_running_stats=True)\n            (act2): HardSwishMe()\n            (se): SqueezeExcite(\n              (conv_reduce): Conv2d(960, 240, kernel_size=(1, 1), stride=(1, 1))\n              (act1): ReLU(inplace=True)\n              (conv_expand): Conv2d(240, 960, kernel_size=(1, 1), stride=(1, 1))\n            )\n            (conv_pwl): Conv2d(960, 160, kernel_size=(1, 1), stride=(1, 1), bias=False)\n            (bn3): BatchNorm2d(160, eps=1e-05, momentum=0.1, affine=True, track_running_stats=True)\n          )\n        )\n        (6): Sequential(\n          (0): ConvBnAct(\n            (conv): Conv2d(160, 960, kernel_size=(1, 1), stride=(1, 1), bias=False)\n            (bn1): BatchNorm2d(960, eps=1e-05, momentum=0.1, affine=True, track_running_stats=True)\n            (act1): HardSwishMe()\n          )\n        )\n      )\n      (global_pool): SelectAdaptivePool2d (pool_type=avg, flatten=False)\n      (conv_head): Conv2d(960, 1280, kernel_size=(1, 1), stride=(1, 1))\n      (act2): HardSwishMe()\n      (classifier): Linear(in_features=1280, out_features=512, bias=True)\n    )\n    (1): BatchNorm1d(512, eps=1e-05, momentum=0.1, affine=True, track_running_stats=True)\n    (2): ReLU()\n  )\n  (gender_head): Sequential(\n    (0): Dropout(p=0.2, inplace=False)\n    (1): Linear(in_features=512, out_features=1, bias=True)\n    (2): Sigmoid()\n  )\n  (age_head): Sequential(\n    (0): Linear(in_features=512, out_features=116, bias=True)\n  )\n)", "parameters": [], "output_shape": [[16, 116], [16, 1]], "num_parameters": []}, {"name": "module", "id": 140425429163264, "class_name": "Net(\n  (backbone): Sequential(\n    (0): MobileNetV3(\n      (conv_stem): Conv2d(3, 16, kernel_size=(3, 3), stride=(2, 2), padding=(1, 1), bias=False)\n      (bn1): BatchNorm2d(16, eps=1e-05, momentum=0.1, affine=True, track_running_stats=True)\n      (act1): HardSwishMe()\n      (blocks): Sequential(\n        (0): Sequential(\n          (0): DepthwiseSeparableConv(\n            (conv_dw): Conv2d(16, 16, kernel_size=(3, 3), stride=(1, 1), padding=(1, 1), groups=16, bias=False)\n            (bn1): BatchNorm2d(16, eps=1e-05, momentum=0.1, affine=True, track_running_stats=True)\n            (act1): ReLU(inplace=True)\n            (conv_pw): Conv2d(16, 16, kernel_size=(1, 1), stride=(1, 1), bias=False)\n            (bn2): BatchNorm2d(16, eps=1e-05, momentum=0.1, affine=True, track_running_stats=True)\n            (act2): Identity()\n          )\n        )\n        (1): Sequential(\n          (0): InvertedResidual(\n            (conv_pw): Conv2d(16, 64, kernel_size=(1, 1), stride=(1, 1), bias=False)\n            (bn1): BatchNorm2d(64, eps=1e-05, momentum=0.1, affine=True, track_running_stats=True)\n            (act1): ReLU(inplace=True)\n            (conv_dw): Conv2d(64, 64, kernel_size=(3, 3), stride=(2, 2), padding=(1, 1), groups=64, bias=False)\n            (bn2): BatchNorm2d(64, eps=1e-05, momentum=0.1, affine=True, track_running_stats=True)\n            (act2): ReLU(inplace=True)\n            (conv_pwl): Conv2d(64, 24, kernel_size=(1, 1), stride=(1, 1), bias=False)\n            (bn3): BatchNorm2d(24, eps=1e-05, momentum=0.1, affine=True, track_running_stats=True)\n          )\n          (1): InvertedResidual(\n            (conv_pw): Conv2d(24, 72, kernel_size=(1, 1), stride=(1, 1), bias=False)\n            (bn1): BatchNorm2d(72, eps=1e-05, momentum=0.1, affine=True, track_running_stats=True)\n            (act1): ReLU(inplace=True)\n            (conv_dw): Conv2d(72, 72, kernel_size=(3, 3), stride=(1, 1), padding=(1, 1), groups=72, bias=False)\n            (bn2): BatchNorm2d(72, eps=1e-05, momentum=0.1, affine=True, track_running_stats=True)\n            (act2): ReLU(inplace=True)\n            (conv_pwl): Conv2d(72, 24, kernel_size=(1, 1), stride=(1, 1), bias=False)\n            (bn3): BatchNorm2d(24, eps=1e-05, momentum=0.1, affine=True, track_running_stats=True)\n          )\n        )\n        (2): Sequential(\n          (0): InvertedResidual(\n            (conv_pw): Conv2d(24, 72, kernel_size=(1, 1), stride=(1, 1), bias=False)\n            (bn1): BatchNorm2d(72, eps=1e-05, momentum=0.1, affine=True, track_running_stats=True)\n            (act1): ReLU(inplace=True)\n            (conv_dw): Conv2d(72, 72, kernel_size=(5, 5), stride=(2, 2), padding=(2, 2), groups=72, bias=False)\n            (bn2): BatchNorm2d(72, eps=1e-05, momentum=0.1, affine=True, track_running_stats=True)\n            (act2): ReLU(inplace=True)\n            (se): SqueezeExcite(\n              (conv_reduce): Conv2d(72, 24, kernel_size=(1, 1), stride=(1, 1))\n              (act1): ReLU(inplace=True)\n              (conv_expand): Conv2d(24, 72, kernel_size=(1, 1), stride=(1, 1))\n            )\n            (conv_pwl): Conv2d(72, 40, kernel_size=(1, 1), stride=(1, 1), bias=False)\n            (bn3): BatchNorm2d(40, eps=1e-05, momentum=0.1, affine=True, track_running_stats=True)\n          )\n          (1): InvertedResidual(\n            (conv_pw): Conv2d(40, 120, kernel_size=(1, 1), stride=(1, 1), bias=False)\n            (bn1): BatchNorm2d(120, eps=1e-05, momentum=0.1, affine=True, track_running_stats=True)\n            (act1): ReLU(inplace=True)\n            (conv_dw): Conv2d(120, 120, kernel_size=(5, 5), stride=(1, 1), padding=(2, 2), groups=120, bias=False)\n            (bn2): BatchNorm2d(120, eps=1e-05, momentum=0.1, affine=True, track_running_stats=True)\n            (act2): ReLU(inplace=True)\n            (se): SqueezeExcite(\n              (conv_reduce): Conv2d(120, 32, kernel_size=(1, 1), stride=(1, 1))\n              (act1): ReLU(inplace=True)\n              (conv_expand): Conv2d(32, 120, kernel_size=(1, 1), stride=(1, 1))\n            )\n            (conv_pwl): Conv2d(120, 40, kernel_size=(1, 1), stride=(1, 1), bias=False)\n            (bn3): BatchNorm2d(40, eps=1e-05, momentum=0.1, affine=True, track_running_stats=True)\n          )\n          (2): InvertedResidual(\n            (conv_pw): Conv2d(40, 120, kernel_size=(1, 1), stride=(1, 1), bias=False)\n            (bn1): BatchNorm2d(120, eps=1e-05, momentum=0.1, affine=True, track_running_stats=True)\n            (act1): ReLU(inplace=True)\n            (conv_dw): Conv2d(120, 120, kernel_size=(5, 5), stride=(1, 1), padding=(2, 2), groups=120, bias=False)\n            (bn2): BatchNorm2d(120, eps=1e-05, momentum=0.1, affine=True, track_running_stats=True)\n            (act2): ReLU(inplace=True)\n            (se): SqueezeExcite(\n              (conv_reduce): Conv2d(120, 32, kernel_size=(1, 1), stride=(1, 1))\n              (act1): ReLU(inplace=True)\n              (conv_expand): Conv2d(32, 120, kernel_size=(1, 1), stride=(1, 1))\n            )\n            (conv_pwl): Conv2d(120, 40, kernel_size=(1, 1), stride=(1, 1), bias=False)\n            (bn3): BatchNorm2d(40, eps=1e-05, momentum=0.1, affine=True, track_running_stats=True)\n          )\n        )\n        (3): Sequential(\n          (0): InvertedResidual(\n            (conv_pw): Conv2d(40, 240, kernel_size=(1, 1), stride=(1, 1), bias=False)\n            (bn1): BatchNorm2d(240, eps=1e-05, momentum=0.1, affine=True, track_running_stats=True)\n            (act1): HardSwishMe()\n            (conv_dw): Conv2d(240, 240, kernel_size=(3, 3), stride=(2, 2), padding=(1, 1), groups=240, bias=False)\n            (bn2): BatchNorm2d(240, eps=1e-05, momentum=0.1, affine=True, track_running_stats=True)\n            (act2): HardSwishMe()\n            (conv_pwl): Conv2d(240, 80, kernel_size=(1, 1), stride=(1, 1), bias=False)\n            (bn3): BatchNorm2d(80, eps=1e-05, momentum=0.1, affine=True, track_running_stats=True)\n          )\n          (1): InvertedResidual(\n            (conv_pw): Conv2d(80, 200, kernel_size=(1, 1), stride=(1, 1), bias=False)\n            (bn1): BatchNorm2d(200, eps=1e-05, momentum=0.1, affine=True, track_running_stats=True)\n            (act1): HardSwishMe()\n            (conv_dw): Conv2d(200, 200, kernel_size=(3, 3), stride=(1, 1), padding=(1, 1), groups=200, bias=False)\n            (bn2): BatchNorm2d(200, eps=1e-05, momentum=0.1, affine=True, track_running_stats=True)\n            (act2): HardSwishMe()\n            (conv_pwl): Conv2d(200, 80, kernel_size=(1, 1), stride=(1, 1), bias=False)\n            (bn3): BatchNorm2d(80, eps=1e-05, momentum=0.1, affine=True, track_running_stats=True)\n          )\n          (2): InvertedResidual(\n            (conv_pw): Conv2d(80, 184, kernel_size=(1, 1), stride=(1, 1), bias=False)\n            (bn1): BatchNorm2d(184, eps=1e-05, momentum=0.1, affine=True, track_running_stats=True)\n            (act1): HardSwishMe()\n            (conv_dw): Conv2d(184, 184, kernel_size=(3, 3), stride=(1, 1), padding=(1, 1), groups=184, bias=False)\n            (bn2): BatchNorm2d(184, eps=1e-05, momentum=0.1, affine=True, track_running_stats=True)\n            (act2): HardSwishMe()\n            (conv_pwl): Conv2d(184, 80, kernel_size=(1, 1), stride=(1, 1), bias=False)\n            (bn3): BatchNorm2d(80, eps=1e-05, momentum=0.1, affine=True, track_running_stats=True)\n          )\n          (3): InvertedResidual(\n            (conv_pw): Conv2d(80, 184, kernel_size=(1, 1), stride=(1, 1), bias=False)\n            (bn1): BatchNorm2d(184, eps=1e-05, momentum=0.1, affine=True, track_running_stats=True)\n            (act1): HardSwishMe()\n            (conv_dw): Conv2d(184, 184, kernel_size=(3, 3), stride=(1, 1), padding=(1, 1), groups=184, bias=False)\n            (bn2): BatchNorm2d(184, eps=1e-05, momentum=0.1, affine=True, track_running_stats=True)\n            (act2): HardSwishMe()\n            (conv_pwl): Conv2d(184, 80, kernel_size=(1, 1), stride=(1, 1), bias=False)\n            (bn3): BatchNorm2d(80, eps=1e-05, momentum=0.1, affine=True, track_running_stats=True)\n          )\n        )\n        (4): Sequential(\n          (0): InvertedResidual(\n            (conv_pw): Conv2d(80, 480, kernel_size=(1, 1), stride=(1, 1), bias=False)\n            (bn1): BatchNorm2d(480, eps=1e-05, momentum=0.1, affine=True, track_running_stats=True)\n            (act1): HardSwishMe()\n            (conv_dw): Conv2d(480, 480, kernel_size=(3, 3), stride=(1, 1), padding=(1, 1), groups=480, bias=False)\n            (bn2): BatchNorm2d(480, eps=1e-05, momentum=0.1, affine=True, track_running_stats=True)\n            (act2): HardSwishMe()\n            (se): SqueezeExcite(\n              (conv_reduce): Conv2d(480, 120, kernel_size=(1, 1), stride=(1, 1))\n              (act1): ReLU(inplace=True)\n              (conv_expand): Conv2d(120, 480, kernel_size=(1, 1), stride=(1, 1))\n            )\n            (conv_pwl): Conv2d(480, 112, kernel_size=(1, 1), stride=(1, 1), bias=False)\n            (bn3): BatchNorm2d(112, eps=1e-05, momentum=0.1, affine=True, track_running_stats=True)\n          )\n          (1): InvertedResidual(\n            (conv_pw): Conv2d(112, 672, kernel_size=(1, 1), stride=(1, 1), bias=False)\n            (bn1): BatchNorm2d(672, eps=1e-05, momentum=0.1, affine=True, track_running_stats=True)\n            (act1): HardSwishMe()\n            (conv_dw): Conv2d(672, 672, kernel_size=(3, 3), stride=(1, 1), padding=(1, 1), groups=672, bias=False)\n            (bn2): BatchNorm2d(672, eps=1e-05, momentum=0.1, affine=True, track_running_stats=True)\n            (act2): HardSwishMe()\n            (se): SqueezeExcite(\n              (conv_reduce): Conv2d(672, 168, kernel_size=(1, 1), stride=(1, 1))\n              (act1): ReLU(inplace=True)\n              (conv_expand): Conv2d(168, 672, kernel_size=(1, 1), stride=(1, 1))\n            )\n            (conv_pwl): Conv2d(672, 112, kernel_size=(1, 1), stride=(1, 1), bias=False)\n            (bn3): BatchNorm2d(112, eps=1e-05, momentum=0.1, affine=True, track_running_stats=True)\n          )\n        )\n        (5): Sequential(\n          (0): InvertedResidual(\n            (conv_pw): Conv2d(112, 672, kernel_size=(1, 1), stride=(1, 1), bias=False)\n            (bn1): BatchNorm2d(672, eps=1e-05, momentum=0.1, affine=True, track_running_stats=True)\n            (act1): HardSwishMe()\n            (conv_dw): Conv2d(672, 672, kernel_size=(5, 5), stride=(2, 2), padding=(2, 2), groups=672, bias=False)\n            (bn2): BatchNorm2d(672, eps=1e-05, momentum=0.1, affine=True, track_running_stats=True)\n            (act2): HardSwishMe()\n            (se): SqueezeExcite(\n              (conv_reduce): Conv2d(672, 168, kernel_size=(1, 1), stride=(1, 1))\n              (act1): ReLU(inplace=True)\n              (conv_expand): Conv2d(168, 672, kernel_size=(1, 1), stride=(1, 1))\n            )\n            (conv_pwl): Conv2d(672, 160, kernel_size=(1, 1), stride=(1, 1), bias=False)\n            (bn3): BatchNorm2d(160, eps=1e-05, momentum=0.1, affine=True, track_running_stats=True)\n          )\n          (1): InvertedResidual(\n            (conv_pw): Conv2d(160, 960, kernel_size=(1, 1), stride=(1, 1), bias=False)\n            (bn1): BatchNorm2d(960, eps=1e-05, momentum=0.1, affine=True, track_running_stats=True)\n            (act1): HardSwishMe()\n            (conv_dw): Conv2d(960, 960, kernel_size=(5, 5), stride=(1, 1), padding=(2, 2), groups=960, bias=False)\n            (bn2): BatchNorm2d(960, eps=1e-05, momentum=0.1, affine=True, track_running_stats=True)\n            (act2): HardSwishMe()\n            (se): SqueezeExcite(\n              (conv_reduce): Conv2d(960, 240, kernel_size=(1, 1), stride=(1, 1))\n              (act1): ReLU(inplace=True)\n              (conv_expand): Conv2d(240, 960, kernel_size=(1, 1), stride=(1, 1))\n            )\n            (conv_pwl): Conv2d(960, 160, kernel_size=(1, 1), stride=(1, 1), bias=False)\n            (bn3): BatchNorm2d(160, eps=1e-05, momentum=0.1, affine=True, track_running_stats=True)\n          )\n          (2): InvertedResidual(\n            (conv_pw): Conv2d(160, 960, kernel_size=(1, 1), stride=(1, 1), bias=False)\n            (bn1): BatchNorm2d(960, eps=1e-05, momentum=0.1, affine=True, track_running_stats=True)\n            (act1): HardSwishMe()\n            (conv_dw): Conv2d(960, 960, kernel_size=(5, 5), stride=(1, 1), padding=(2, 2), groups=960, bias=False)\n            (bn2): BatchNorm2d(960, eps=1e-05, momentum=0.1, affine=True, track_running_stats=True)\n            (act2): HardSwishMe()\n            (se): SqueezeExcite(\n              (conv_reduce): Conv2d(960, 240, kernel_size=(1, 1), stride=(1, 1))\n              (act1): ReLU(inplace=True)\n              (conv_expand): Conv2d(240, 960, kernel_size=(1, 1), stride=(1, 1))\n            )\n            (conv_pwl): Conv2d(960, 160, kernel_size=(1, 1), stride=(1, 1), bias=False)\n            (bn3): BatchNorm2d(160, eps=1e-05, momentum=0.1, affine=True, track_running_stats=True)\n          )\n        )\n        (6): Sequential(\n          (0): ConvBnAct(\n            (conv): Conv2d(160, 960, kernel_size=(1, 1), stride=(1, 1), bias=False)\n            (bn1): BatchNorm2d(960, eps=1e-05, momentum=0.1, affine=True, track_running_stats=True)\n            (act1): HardSwishMe()\n          )\n        )\n      )\n      (global_pool): SelectAdaptivePool2d (pool_type=avg, flatten=False)\n      (conv_head): Conv2d(960, 1280, kernel_size=(1, 1), stride=(1, 1))\n      (act2): HardSwishMe()\n      (classifier): Linear(in_features=1280, out_features=512, bias=True)\n    )\n    (1): BatchNorm1d(512, eps=1e-05, momentum=0.1, affine=True, track_running_stats=True)\n    (2): ReLU()\n  )\n  (gender_head): Sequential(\n    (0): Dropout(p=0.2, inplace=False)\n    (1): Linear(in_features=512, out_features=1, bias=True)\n    (2): Sigmoid()\n  )\n  (age_head): Sequential(\n    (0): Linear(in_features=512, out_features=116, bias=True)\n  )\n)", "parameters": [], "output_shape": [[16, 116], [16, 1]], "num_parameters": []}, {"name": "module", "id": 140425429162064, "class_name": "Net(\n  (backbone): Sequential(\n    (0): MobileNetV3(\n      (conv_stem): Conv2d(3, 16, kernel_size=(3, 3), stride=(2, 2), padding=(1, 1), bias=False)\n      (bn1): BatchNorm2d(16, eps=1e-05, momentum=0.1, affine=True, track_running_stats=True)\n      (act1): HardSwishMe()\n      (blocks): Sequential(\n        (0): Sequential(\n          (0): DepthwiseSeparableConv(\n            (conv_dw): Conv2d(16, 16, kernel_size=(3, 3), stride=(1, 1), padding=(1, 1), groups=16, bias=False)\n            (bn1): BatchNorm2d(16, eps=1e-05, momentum=0.1, affine=True, track_running_stats=True)\n            (act1): ReLU(inplace=True)\n            (conv_pw): Conv2d(16, 16, kernel_size=(1, 1), stride=(1, 1), bias=False)\n            (bn2): BatchNorm2d(16, eps=1e-05, momentum=0.1, affine=True, track_running_stats=True)\n            (act2): Identity()\n          )\n        )\n        (1): Sequential(\n          (0): InvertedResidual(\n            (conv_pw): Conv2d(16, 64, kernel_size=(1, 1), stride=(1, 1), bias=False)\n            (bn1): BatchNorm2d(64, eps=1e-05, momentum=0.1, affine=True, track_running_stats=True)\n            (act1): ReLU(inplace=True)\n            (conv_dw): Conv2d(64, 64, kernel_size=(3, 3), stride=(2, 2), padding=(1, 1), groups=64, bias=False)\n            (bn2): BatchNorm2d(64, eps=1e-05, momentum=0.1, affine=True, track_running_stats=True)\n            (act2): ReLU(inplace=True)\n            (conv_pwl): Conv2d(64, 24, kernel_size=(1, 1), stride=(1, 1), bias=False)\n            (bn3): BatchNorm2d(24, eps=1e-05, momentum=0.1, affine=True, track_running_stats=True)\n          )\n          (1): InvertedResidual(\n            (conv_pw): Conv2d(24, 72, kernel_size=(1, 1), stride=(1, 1), bias=False)\n            (bn1): BatchNorm2d(72, eps=1e-05, momentum=0.1, affine=True, track_running_stats=True)\n            (act1): ReLU(inplace=True)\n            (conv_dw): Conv2d(72, 72, kernel_size=(3, 3), stride=(1, 1), padding=(1, 1), groups=72, bias=False)\n            (bn2): BatchNorm2d(72, eps=1e-05, momentum=0.1, affine=True, track_running_stats=True)\n            (act2): ReLU(inplace=True)\n            (conv_pwl): Conv2d(72, 24, kernel_size=(1, 1), stride=(1, 1), bias=False)\n            (bn3): BatchNorm2d(24, eps=1e-05, momentum=0.1, affine=True, track_running_stats=True)\n          )\n        )\n        (2): Sequential(\n          (0): InvertedResidual(\n            (conv_pw): Conv2d(24, 72, kernel_size=(1, 1), stride=(1, 1), bias=False)\n            (bn1): BatchNorm2d(72, eps=1e-05, momentum=0.1, affine=True, track_running_stats=True)\n            (act1): ReLU(inplace=True)\n            (conv_dw): Conv2d(72, 72, kernel_size=(5, 5), stride=(2, 2), padding=(2, 2), groups=72, bias=False)\n            (bn2): BatchNorm2d(72, eps=1e-05, momentum=0.1, affine=True, track_running_stats=True)\n            (act2): ReLU(inplace=True)\n            (se): SqueezeExcite(\n              (conv_reduce): Conv2d(72, 24, kernel_size=(1, 1), stride=(1, 1))\n              (act1): ReLU(inplace=True)\n              (conv_expand): Conv2d(24, 72, kernel_size=(1, 1), stride=(1, 1))\n            )\n            (conv_pwl): Conv2d(72, 40, kernel_size=(1, 1), stride=(1, 1), bias=False)\n            (bn3): BatchNorm2d(40, eps=1e-05, momentum=0.1, affine=True, track_running_stats=True)\n          )\n          (1): InvertedResidual(\n            (conv_pw): Conv2d(40, 120, kernel_size=(1, 1), stride=(1, 1), bias=False)\n            (bn1): BatchNorm2d(120, eps=1e-05, momentum=0.1, affine=True, track_running_stats=True)\n            (act1): ReLU(inplace=True)\n            (conv_dw): Conv2d(120, 120, kernel_size=(5, 5), stride=(1, 1), padding=(2, 2), groups=120, bias=False)\n            (bn2): BatchNorm2d(120, eps=1e-05, momentum=0.1, affine=True, track_running_stats=True)\n            (act2): ReLU(inplace=True)\n            (se): SqueezeExcite(\n              (conv_reduce): Conv2d(120, 32, kernel_size=(1, 1), stride=(1, 1))\n              (act1): ReLU(inplace=True)\n              (conv_expand): Conv2d(32, 120, kernel_size=(1, 1), stride=(1, 1))\n            )\n            (conv_pwl): Conv2d(120, 40, kernel_size=(1, 1), stride=(1, 1), bias=False)\n            (bn3): BatchNorm2d(40, eps=1e-05, momentum=0.1, affine=True, track_running_stats=True)\n          )\n          (2): InvertedResidual(\n            (conv_pw): Conv2d(40, 120, kernel_size=(1, 1), stride=(1, 1), bias=False)\n            (bn1): BatchNorm2d(120, eps=1e-05, momentum=0.1, affine=True, track_running_stats=True)\n            (act1): ReLU(inplace=True)\n            (conv_dw): Conv2d(120, 120, kernel_size=(5, 5), stride=(1, 1), padding=(2, 2), groups=120, bias=False)\n            (bn2): BatchNorm2d(120, eps=1e-05, momentum=0.1, affine=True, track_running_stats=True)\n            (act2): ReLU(inplace=True)\n            (se): SqueezeExcite(\n              (conv_reduce): Conv2d(120, 32, kernel_size=(1, 1), stride=(1, 1))\n              (act1): ReLU(inplace=True)\n              (conv_expand): Conv2d(32, 120, kernel_size=(1, 1), stride=(1, 1))\n            )\n            (conv_pwl): Conv2d(120, 40, kernel_size=(1, 1), stride=(1, 1), bias=False)\n            (bn3): BatchNorm2d(40, eps=1e-05, momentum=0.1, affine=True, track_running_stats=True)\n          )\n        )\n        (3): Sequential(\n          (0): InvertedResidual(\n            (conv_pw): Conv2d(40, 240, kernel_size=(1, 1), stride=(1, 1), bias=False)\n            (bn1): BatchNorm2d(240, eps=1e-05, momentum=0.1, affine=True, track_running_stats=True)\n            (act1): HardSwishMe()\n            (conv_dw): Conv2d(240, 240, kernel_size=(3, 3), stride=(2, 2), padding=(1, 1), groups=240, bias=False)\n            (bn2): BatchNorm2d(240, eps=1e-05, momentum=0.1, affine=True, track_running_stats=True)\n            (act2): HardSwishMe()\n            (conv_pwl): Conv2d(240, 80, kernel_size=(1, 1), stride=(1, 1), bias=False)\n            (bn3): BatchNorm2d(80, eps=1e-05, momentum=0.1, affine=True, track_running_stats=True)\n          )\n          (1): InvertedResidual(\n            (conv_pw): Conv2d(80, 200, kernel_size=(1, 1), stride=(1, 1), bias=False)\n            (bn1): BatchNorm2d(200, eps=1e-05, momentum=0.1, affine=True, track_running_stats=True)\n            (act1): HardSwishMe()\n            (conv_dw): Conv2d(200, 200, kernel_size=(3, 3), stride=(1, 1), padding=(1, 1), groups=200, bias=False)\n            (bn2): BatchNorm2d(200, eps=1e-05, momentum=0.1, affine=True, track_running_stats=True)\n            (act2): HardSwishMe()\n            (conv_pwl): Conv2d(200, 80, kernel_size=(1, 1), stride=(1, 1), bias=False)\n            (bn3): BatchNorm2d(80, eps=1e-05, momentum=0.1, affine=True, track_running_stats=True)\n          )\n          (2): InvertedResidual(\n            (conv_pw): Conv2d(80, 184, kernel_size=(1, 1), stride=(1, 1), bias=False)\n            (bn1): BatchNorm2d(184, eps=1e-05, momentum=0.1, affine=True, track_running_stats=True)\n            (act1): HardSwishMe()\n            (conv_dw): Conv2d(184, 184, kernel_size=(3, 3), stride=(1, 1), padding=(1, 1), groups=184, bias=False)\n            (bn2): BatchNorm2d(184, eps=1e-05, momentum=0.1, affine=True, track_running_stats=True)\n            (act2): HardSwishMe()\n            (conv_pwl): Conv2d(184, 80, kernel_size=(1, 1), stride=(1, 1), bias=False)\n            (bn3): BatchNorm2d(80, eps=1e-05, momentum=0.1, affine=True, track_running_stats=True)\n          )\n          (3): InvertedResidual(\n            (conv_pw): Conv2d(80, 184, kernel_size=(1, 1), stride=(1, 1), bias=False)\n            (bn1): BatchNorm2d(184, eps=1e-05, momentum=0.1, affine=True, track_running_stats=True)\n            (act1): HardSwishMe()\n            (conv_dw): Conv2d(184, 184, kernel_size=(3, 3), stride=(1, 1), padding=(1, 1), groups=184, bias=False)\n            (bn2): BatchNorm2d(184, eps=1e-05, momentum=0.1, affine=True, track_running_stats=True)\n            (act2): HardSwishMe()\n            (conv_pwl): Conv2d(184, 80, kernel_size=(1, 1), stride=(1, 1), bias=False)\n            (bn3): BatchNorm2d(80, eps=1e-05, momentum=0.1, affine=True, track_running_stats=True)\n          )\n        )\n        (4): Sequential(\n          (0): InvertedResidual(\n            (conv_pw): Conv2d(80, 480, kernel_size=(1, 1), stride=(1, 1), bias=False)\n            (bn1): BatchNorm2d(480, eps=1e-05, momentum=0.1, affine=True, track_running_stats=True)\n            (act1): HardSwishMe()\n            (conv_dw): Conv2d(480, 480, kernel_size=(3, 3), stride=(1, 1), padding=(1, 1), groups=480, bias=False)\n           …
  (act2): HardSwishMe()\n            (conv_pwl): Conv2d(200, 80, kernel_size=(1, 1), stride=(1, 1), bias=False)\n            (bn3): BatchNorm2d(80, eps=1e-05, momentum=0.1, affine=True, track_running_stats=True)\n          )\n          (2): InvertedResidual(\n            (conv_pw): Conv2d(80, 184, kernel_size=(1, 1), stride=(1, 1), bias=False)\n            (bn1): BatchNorm2d(184, eps=1e-05, momentum=0.1, affine=True, track_running_stats=True)\n            (act1): HardSwishMe()\n            (conv_dw): Conv2d(184, 184, kernel_size=(3, 3), stride=(1, 1), padding=(1, 1), groups=184, bias=False)\n            (bn2): BatchNorm2d(184, eps=1e-05, momentum=0.1, affine=True, track_running_stats=True)\n            (act2): HardSwishMe()\n            (conv_pwl): Conv2d(184, 80, kernel_size=(1, 1), stride=(1, 1), bias=False)\n            (bn3): BatchNorm2d(80, eps=1e-05, momentum=0.1, affine=True, track_running_stats=True)\n          )\n          (3): InvertedResidual(\n            (conv_pw): Conv2d(80, 184, kernel_size=(1, 1), stride=(1, 1), bias=False)\n            (bn1): BatchNorm2d(184, eps=1e-05, momentum=0.1, affine=True, track_running_stats=True)\n            (act1): HardSwishMe()\n            (conv_dw): Conv2d(184, 184, kernel_size=(3, 3), stride=(1, 1), padding=(1, 1), groups=184, bias=False)\n            (bn2): BatchNorm2d(184, eps=1e-05, momentum=0.1, affine=True, track_running_stats=True)\n            (act2): HardSwishMe()\n            (conv_pwl): Conv2d(184, 80, kernel_size=(1, 1), stride=(1, 1), bias=False)\n            (bn3): BatchNorm2d(80, eps=1e-05, momentum=0.1, affine=True, track_running_stats=True)\n          )\n        )\n        (4): Sequential(\n          (0): InvertedResidual(\n            (conv_pw): Conv2d(80, 480, kernel_size=(1, 1), stride=(1, 1), bias=False)\n            (bn1): BatchNorm2d(480, eps=1e-05, momentum=0.1, affine=True, track_running_stats=True)\n            (act1): HardSwishMe()\n            (conv_dw): Conv2d(480, 480, kernel_size=(3, 3), stride=(1, 1), padding=(1, 1), groups=480, bias=False)\n            (bn2): BatchNorm2d(480, eps=1e-05, momentum=0.1, affine=True, track_running_stats=True)\n            (act2): HardSwishMe()\n            (se): SqueezeExcite(\n              (conv_reduce): Conv2d(480, 120, kernel_size=(1, 1), stride=(1, 1))\n              (act1): ReLU(inplace=True)\n              (conv_expand): Conv2d(120, 480, kernel_size=(1, 1), stride=(1, 1))\n            )\n            (conv_pwl): Conv2d(480, 112, kernel_size=(1, 1), stride=(1, 1), bias=False)\n            (bn3): BatchNorm2d(112, eps=1e-05, momentum=0.1, affine=True, track_running_stats=True)\n          )\n          (1): InvertedResidual(\n            (conv_pw): Conv2d(112, 672, kernel_size=(1, 1), stride=(1, 1), bias=False)\n            (bn1): BatchNorm2d(672, eps=1e-05, momentum=0.1, affine=True, track_running_stats=True)\n            (act1): HardSwishMe()\n            (conv_dw): Conv2d(672, 672, kernel_size=(3, 3), stride=(1, 1), padding=(1, 1), groups=672, bias=False)\n            (bn2): BatchNorm2d(672, eps=1e-05, momentum=0.1, affine=True, track_running_stats=True)\n            (act2): HardSwishMe()\n            (se): SqueezeExcite(\n              (conv_reduce): Conv2d(672, 168, kernel_size=(1, 1), stride=(1, 1))\n              (act1): ReLU(inplace=True)\n              (conv_expand): Conv2d(168, 672, kernel_size=(1, 1), stride=(1, 1))\n            )\n            (conv_pwl): Conv2d(672, 112, kernel_size=(1, 1), stride=(1, 1), bias=False)\n            (bn3): BatchNorm2d(112, eps=1e-05, momentum=0.1, affine=True, track_running_stats=True)\n          )\n        )\n        (5): Sequential(\n          (0): InvertedResidual(\n            (conv_pw): Conv2d(112, 672, kernel_size=(1, 1), stride=(1, 1), bias=False)\n            (bn1): BatchNorm2d(672, eps=1e-05, momentum=0.1, affine=True, track_running_stats=True)\n            (act1): HardSwishMe()\n            (conv_dw): Conv2d(672, 672, kernel_size=(5, 5), stride=(2, 2), padding=(2, 2), groups=672, bias=False)\n            (bn2): BatchNorm2d(672, eps=1e-05, momentum=0.1, affine=True, track_running_stats=True)\n            (act2): HardSwishMe()\n            (se): SqueezeExcite(\n              (conv_reduce): Conv2d(672, 168, kernel_size=(1, 1), stride=(1, 1))\n              (act1): ReLU(inplace=True)\n              (conv_expand): Conv2d(168, 672, kernel_size=(1, 1), stride=(1, 1))\n            )\n            (conv_pwl): Conv2d(672, 160, kernel_size=(1, 1), stride=(1, 1), bias=False)\n            (bn3): BatchNorm2d(160, eps=1e-05, momentum=0.1, affine=True, track_running_stats=True)\n          )\n          (1): InvertedResidual(\n            (conv_pw): Conv2d(160, 960, kernel_size=(1, 1), stride=(1, 1), bias=False)\n            (bn1): BatchNorm2d(960, eps=1e-05, momentum=0.1, affine=True, track_running_stats=True)\n            (act1): HardSwishMe()\n            (conv_dw): Conv2d(960, 960, kernel_size=(5, 5), stride=(1, 1), padding=(2, 2), groups=960, bias=False)\n            (bn2): BatchNorm2d(960, eps=1e-05, momentum=0.1, affine=True, track_running_stats=True)\n            (act2): HardSwishMe()\n            (se): SqueezeExcite(\n              (conv_reduce): Conv2d(960, 240, kernel_size=(1, 1), stride=(1, 1))\n              (act1): ReLU(inplace=True)\n              (conv_expand): Conv2d(240, 960, kernel_size=(1, 1), stride=(1, 1))\n            )\n            (conv_pwl): Conv2d(960, 160, kernel_size=(1, 1), stride=(1, 1), bias=False)\n            (bn3): BatchNorm2d(160, eps=1e-05, momentum=0.1, affine=True, track_running_stats=True)\n          )\n          (2): InvertedResidual(\n            (conv_pw): Conv2d(160, 960, kernel_size=(1, 1), stride=(1, 1), bias=False)\n            (bn1): BatchNorm2d(960, eps=1e-05, momentum=0.1, affine=True, track_running_stats=True)\n            (act1): HardSwishMe()\n            (conv_dw): Conv2d(960, 960, kernel_size=(5, 5), stride=(1, 1), padding=(2, 2), groups=960, bias=False)\n            (bn2): BatchNorm2d(960, eps=1e-05, momentum=0.1, affine=True, track_running_stats=True)\n            (act2): HardSwishMe()\n            (se): SqueezeExcite(\n              (conv_reduce): Conv2d(960, 240, kernel_size=(1, 1), stride=(1, 1))\n              (act1): ReLU(inplace=True)\n              (conv_expand): Conv2d(240, 960, kernel_size=(1, 1), stride=(1, 1))\n            )\n            (conv_pwl): Conv2d(960, 160, kernel_size=(1, 1), stride=(1, 1), bias=False)\n            (bn3): BatchNorm2d(160, eps=1e-05, momentum=0.1, affine=True, track_running_stats=True)\n          )\n        )\n        (6): Sequential(\n          (0): ConvBnAct(\n            (conv): Conv2d(160, 960, kernel_size=(1, 1), stride=(1, 1), bias=False)\n            (bn1): BatchNorm2d(960, eps=1e-05, momentum=0.1, affine=True, track_running_stats=True)\n            (act1): HardSwishMe()\n          )\n        )\n      )\n      (global_pool): SelectAdaptivePool2d (pool_type=avg, flatten=False)\n      (conv_head): Conv2d(960, 1280, kernel_size=(1, 1), stride=(1, 1))\n      (act2): HardSwishMe()\n      (classifier): Linear(in_features=1280, out_features=512, bias=True)\n    )\n    (1): BatchNorm1d(512, eps=1e-05, momentum=0.1, affine=True, track_running_stats=True)\n    (2): ReLU()\n  )\n  (gender_head): Sequential(\n    (0): Dropout(p=0.2, inplace=False)\n    (1): Linear(in_features=512, out_features=1, bias=True)\n    (2): Sigmoid()\n  )\n  (age_head): Sequential(\n    (0): Linear(in_features=512, out_features=116, bias=True)\n  )\n)", "parameters": [], "output_shape": [[16, 116], [16, 1]], "num_parameters": []}, {"name": "module", "id": 140425412576304, "class_name": "Net(\n  (backbone): Sequential(\n    (0): MobileNetV3(\n      (conv_stem): Conv2d(3, 16, kernel_size=(3, 3), stride=(2, 2), padding=(1, 1), bias=False)\n      (bn1): BatchNorm2d(16, eps=1e-05, momentum=0.1, affine=True, track_running_stats=True)\n      (act1): HardSwishMe()\n      (blocks): Sequential(\n        (0): Sequential(\n          (0): DepthwiseSeparableConv(\n            (conv_dw): Conv2d(16, 16, kernel_size=(3, 3), stride=(1, 1), padding=(1, 1), groups=16, bias=False)\n            (bn1): BatchNorm2d(16, eps=1e-05, momentum=0.1, affine=True, track_running_stats=True)\n            (act1): ReLU(inplace=True)\n            (conv_pw): Conv2d(16, 16, kernel_size=(1, 1), stride=(1, 1), bias=False)\n            (bn2): BatchNorm2d(16, eps=1e-05, momentum=0.1, affine=True, track_running_stats=True)\n            (act2): Identity()\n          )\n        )\n        (1): Sequential(\n          (0): InvertedResidual(\n            (conv_pw): Conv2d(16, 64, kernel_size=(1, 1), stride=(1, 1), bias=False)\n            (bn1): BatchNorm2d(64, eps=1e-05, momentum=0.1, affine=True, track_running_stats=True)\n            (act1): ReLU(inplace=True)\n            (conv_dw): Conv2d(64, 64, kernel_size=(3, 3), stride=(2, 2), padding=(1, 1), groups=64, bias=False)\n            (bn2): BatchNorm2d(64, eps=1e-05, momentum=0.1, affine=True, track_running_stats=True)\n            (act2): ReLU(inplace=True)\n            (conv_pwl): Conv2d(64, 24, kernel_size=(1, 1), stride=(1, 1), bias=False)\n            (bn3): BatchNorm2d(24, eps=1e-05, momentum=0.1, affine=True, track_running_stats=True)\n          )\n          (1): InvertedResidual(\n            (conv_pw): Conv2d(24, 72, kernel_size=(1, 1), stride=(1, 1), bias=False)\n            (bn1): BatchNorm2d(72, eps=1e-05, momentum=0.1, affine=True, track_running_stats=True)\n            (act1): ReLU(inplace=True)\n            (conv_dw): Conv2d(72, 72, kernel_size=(3, 3), stride=(1, 1), padding=(1, 1), groups=72, bias=False)\n            (bn2): BatchNorm2d(72, eps=1e-05, momentum=0.1, affine=True, track_running_stats=True)\n            (act2): ReLU(inplace=True)\n            (conv_pwl): Conv2d(72, 24, kernel_size=(1, 1), stride=(1, 1), bias=False)\n            (bn3): BatchNorm2d(24, eps=1e-05, momentum=0.1, affine=True, track_running_stats=True)\n          )\n        )\n        (2): Sequential(\n          (0): InvertedResidual(\n            (conv_pw): Conv2d(24, 72, kernel_size=(1, 1), stride=(1, 1), bias=False)\n            (bn1): BatchNorm2d(72, eps=1e-05, momentum=0.1, affine=True, track_running_stats=True)\n            (act1): ReLU(inplace=True)\n            (conv_dw): Conv2d(72, 72, kernel_size=(5, 5), stride=(2, 2), padding=(2, 2), groups=72, bias=False)\n            (bn2): BatchNorm2d(72, eps=1e-05, momentum=0.1, affine=True, track_running_stats=True)\n            (act2): ReLU(inplace=True)\n            (se): SqueezeExcite(\n              (conv_reduce): Conv2d(72, 24, kernel_size=(1, 1), stride=(1, 1))\n              (act1): ReLU(inplace=True)\n              (conv_expand): Conv2d(24, 72, kernel_size=(1, 1), stride=(1, 1))\n            )\n            (conv_pwl): Conv2d(72, 40, kernel_size=(1, 1), stride=(1, 1), bias=False)\n            (bn3): BatchNorm2d(40, eps=1e-05, momentum=0.1, affine=True, track_running_stats=True)\n          )\n          (1): InvertedResidual(\n            (conv_pw): Conv2d(40, 120, kernel_size=(1, 1), stride=(1, 1), bias=False)\n            (bn1): BatchNorm2d(120, eps=1e-05, momentum=0.1, affine=True, track_running_stats=True)\n            (act1): ReLU(inplace=True)\n            (conv_dw): Conv2d(120, 120, kernel_size=(5, 5), stride=(1, 1), padding=(2, 2), groups=120, bias=False)\n            (bn2): BatchNorm2d(120, eps=1e-05, momentum=0.1, affine=True, track_running_stats=True)\n            (act2): ReLU(inplace=True)\n            (se): SqueezeExcite(\n              (conv_reduce): Conv2d(120, 32, kernel_size=(1, 1), stride=(1, 1))\n              (act1): ReLU(inplace=True)\n              (conv_expand): Conv2d(32, 120, kernel_size=(1, 1), stride=(1, 1))\n            )\n            (conv_pwl): Conv2d(120, 40, kernel_size=(1, 1), stride=(1, 1), bias=False)\n            (bn3): BatchNorm2d(40, eps=1e-05, momentum=0.1, affine=True, track_running_stats=True)\n          )\n          (2): InvertedResidual(\n            (conv_pw): Conv2d(40, 120, kernel_size=(1, 1), stride=(1, 1), bias=False)\n            (bn1): BatchNorm2d(120, eps=1e-05, momentum=0.1, affine=True, track_running_stats=True)\n            (act1): ReLU(inplace=True)\n            (conv_dw): Conv2d(120, 120, kernel_size=(5, 5), stride=(1, 1), padding=(2, 2), groups=120, bias=False)\n            (bn2): BatchNorm2d(120, eps=1e-05, momentum=0.1, affine=True, track_running_stats=True)\n            (act2): ReLU(inplace=True)\n            (se): SqueezeExcite(\n              (conv_reduce): Conv2d(120, 32, kernel_size=(1, 1), stride=(1, 1))\n              (act1): ReLU(inplace=True)\n              (conv_expand): Conv2d(32, 120, kernel_size=(1, 1), stride=(1, 1))\n            )\n            (conv_pwl): Conv2d(120, 40, kernel_size=(1, 1), stride=(1, 1), bias=False)\n            (bn3): BatchNorm2d(40, eps=1e-05, momentum=0.1, affine=True, track_running_stats=True)\n          )\n        )\n        (3): Sequential(\n          (0): InvertedResidual(\n            (conv_pw): Conv2d(40, 240, kernel_size=(1, 1), stride=(1, 1), bias=False)\n            (bn1): BatchNorm2d(240, eps=1e-05, momentum=0.1, affine=True, track_running_stats=True)\n            (act1): HardSwishMe()\n            (conv_dw): Conv2d(240, 240, kernel_size=(3, 3), stride=(2, 2), padding=(1, 1), groups=240, bias=False)\n            (bn2): BatchNorm2d(240, eps=1e-05, momentum=0.1, affine=True, track_running_stats=True)\n            (act2): HardSwishMe()\n            (conv_pwl): Conv2d(240, 80, kernel_size=(1, 1), stride=(1, 1), bias=False)\n            (bn3): BatchNorm2d(80, eps=1e-05, momentum=0.1, affine=True, track_running_stats=True)\n          )\n          (1): InvertedResidual(\n            (conv_pw): Conv2d(80, 200, kernel_size=(1, 1), stride=(1, 1), bias=False)\n            (bn1): BatchNorm2d(200, eps=1e-05, momentum=0.1, affine=True, track_running_stats=True)\n            (act1): HardSwishMe()\n            (conv_dw): Conv2d(200, 200, kernel_size=(3, 3), stride=(1, 1), padding=(1, 1), groups=200, bias=False)\n            (bn2): BatchNorm2d(200, eps=1e-05, momentum=0.1, affine=True, track_running_stats=True)\n            (act2): HardSwishMe()\n            (conv_pwl): Conv2d(200, 80, kernel_size=(1, 1), stride=(1, 1), bias=False)\n            (bn3): BatchNorm2d(80, eps=1e-05, momentum=0.1, affine=True, track_running_stats=True)\n          )\n          (2): InvertedResidual(\n            (conv_pw): Conv2d(80, 184, kernel_size=(1, 1), stride=(1, 1), bias=False)\n            (bn1): BatchNorm2d(184, eps=1e-05, momentum=0.1, affine=True, track_running_stats=True)\n            (act1): HardSwishMe()\n            (conv_dw): Conv2d(184, 184, kernel_size=(3, 3), stride=(1, 1), padding=(1, 1), groups=184, bias=False)\n            (bn2): BatchNorm2d(184, eps=1e-05, momentum=0.1, affine=True, track_running_stats=True)\n            (act2): HardSwishMe()\n            (conv_pwl): Conv2d(184, 80, kernel_size=(1, 1), stride=(1, 1), bias=False)\n            (bn3): BatchNorm2d(80, eps=1e-05, momentum=0.1, affine=True, track_running_stats=True)\n          )\n          (3): InvertedResidual(\n            (conv_pw): Conv2d(80, 184, kernel_size=(1, 1), stride=(1, 1), bias=False)\n            (bn1): BatchNorm2d(184, eps=1e-05, momentum=0.1, affine=True, track_running_stats=True)\n            (act1): HardSwishMe()\n            (conv_dw): Conv2d(184, 184, kernel_size=(3, 3), stride=(1, 1), padding=(1, 1), groups=184, bias=False)\n            (bn2): BatchNorm2d(184, eps=1e-05, momentum=0.1, affine=True, track_running_stats=True)\n            (act2): HardSwishMe()\n            (conv_pwl): Conv2d(184, 80, kernel_size=(1, 1), stride=(1, 1), bias=False)\n            (bn3): BatchNorm2d(80, eps=1e-05, momentum=0.1, affine=True, track_running_stats=True)\n          )\n        )\n        (4): Sequential(\n          (0): InvertedResidual(\n            (conv_pw): Conv2d(80, 480, kernel_size=(1, 1), stride=(1, 1), bias=False)\n            (bn1): BatchNorm2d(480, eps=1e-05, momentum=0.1, affine=True, track_running_stats=True)\n            (act1): HardSwishMe()\n            (conv_dw): Conv2d(480, 480, kernel_size=(3, 3), stride=(1, 1), padding=(1, 1), groups=480, bias=False)\n            (bn2): BatchNorm2d(480, eps=1e-05, momentum=0.1, affine=True, track_running_stats=True)\n            (act2): HardSwishMe()\n            (se): SqueezeExcite(\n              (conv_reduce): Conv2d(480, 120, kernel_size=(1, 1), stride=(1, 1))\n              (act1): ReLU(inplace=True)\n              (conv_expand): Conv2d(120, 480, kernel_size=(1, 1), stride=(1, 1))\n            )\n            (conv_pwl): Conv2d(480, 112, kernel_size=(1, 1), stride=(1, 1), bias=False)\n            (bn3): BatchNorm2d(112, eps=1e-05, momentum=0.1, affine=True, track_running_stats=True)\n          )\n          (1): InvertedResidual(\n            (conv_pw): Conv2d(112, 672, kernel_size=(1, 1), stride=(1, 1), bias=False)\n            (bn1): BatchNorm2d(672, eps=1e-05, momentum=0.1, affine=True, track_running_stats=True)\n            (act1): HardSwishMe()\n            (conv_dw): Conv2d(672, 672, kernel_size=(3, 3), stride=(1, 1), padding=(1, 1), groups=672, bias=False)\n            (bn2): BatchNorm2d(672, eps=1e-05, momentum=0.1, affine=True, track_running_stats=True)\n            (act2): HardSwishMe()\n            (se): SqueezeExcite(\n              (conv_reduce): Conv2d(672, 168, kernel_size=(1, 1), stride=(1, 1))\n              (act1): ReLU(inplace=True)\n              (conv_expand): Conv2d(168, 672, kernel_size=(1, 1), stride=(1, 1))\n            )\n            (conv_pwl): Conv2d(672, 112, kernel_size=(1, 1), stride=(1, 1), bias=False)\n            (bn3): BatchNorm2d(112, eps=1e-05, momentum=0.1, affine=True, track_running_stats=True)\n          )\n        )\n        (5): Sequential(\n          (0): InvertedResidual(\n            (conv_pw): Conv2d(112, 672, kernel_size=(1, 1), stride=(1, 1), bias=False)\n            (bn1): BatchNorm2d(672, eps=1e-05, momentum=0.1, affine=True, track_running_stats=True)\n            (act1): HardSwishMe()\n            (conv_dw): Conv2d(672, 672, kernel_size=(5, 5), stride=(2, 2), padding=(2, 2), groups=672, bias=False)\n            (bn2): BatchNorm2d(672, eps=1e-05, momentum=0.1, affine=True, track_running_stats=True)\n            (act2): HardSwishMe()\n            (se): SqueezeExcite(\n              (conv_reduce): Conv2d(672, 168, kernel_size=(1, 1), stride=(1, 1))\n              (act1): ReLU(inplace=True)\n              (conv_expand): Conv2d(168, 672, kernel_size=(1, 1), stride=(1, 1))\n            )\n            (conv_pwl): Conv2d(672, 160, kernel_size=(1, 1), stride=(1, 1), bias=False)\n            (bn3): BatchNorm2d(160, eps=1e-05, momentum=0.1, affine=True, track_running_stats=True)\n          )\n          (1): InvertedResidual(\n            (conv_pw): Conv2d(160, 960, kernel_size=(1, 1), stride=(1, 1), bias=False)\n            (bn1): BatchNorm2d(960, eps=1e-05, momentum=0.1, affine=True, track_running_stats=True)\n            (act1): HardSwishMe()\n            (conv_dw): Conv2d(960, 960, kernel_size=(5, 5), stride=(1, 1), padding=(2, 2), groups=960, bias=False)\n            (bn2): BatchNorm2d(960, eps=1e-05, momentum=0.1, affine=True, track_running_stats=True)\n            (act2): HardSwishMe()\n            (se): SqueezeExcite(\n              (conv_reduce): Conv2d(960, 240, kernel_size=(1, 1), stride=(1, 1))\n              (act1): ReLU(inplace=True)\n              (conv_expand): Conv2d(240, 960, kernel_size=(1, 1), stride=(1, 1))\n            )\n            (conv_pwl): Conv2d(960, 160, kernel_size=(1, 1), stride=(1, 1), bias=False)\n            (bn3): BatchNorm2d(160, eps=1e-05, momentum=0.1, affine=True, track_running_stats=True)\n          )\n          (2): InvertedResidual(\n            (conv_pw): Conv2d(160, 960, kernel_size=(1, 1), stride=(1, 1), bias=False)\n            (bn1): BatchNorm2d(960, eps=1e-05, momentum=0.1, affine=True, track_running_stats=True)\n            (act1): HardSwishMe()\n            (conv_dw): Conv2d(960, 960, kernel_size=(5, 5), stride=(1, 1), padding=(2, 2), groups=960, bias=False)\n            (bn2): BatchNorm2d(960, eps=1e-05, momentum=0.1, affine=True, track_running_stats=True)\n            (act2): HardSwishMe()\n            (se): SqueezeExcite(\n              (conv_reduce): Conv2d(960, 240, kernel_size=(1, 1), stride=(1, 1))\n              (act1): ReLU(inplace=True)\n              (conv_expand): Conv2d(240, 960, kernel_size=(1, 1), stride=(1, 1))\n            )\n            (conv_pwl): Conv2d(960, 160, kernel_size=(1, 1), stride=(1, 1), bias=False)\n            (bn3): BatchNorm2d(160, eps=1e-05, momentum=0.1, affine=True, track_running_stats=True)\n          )\n        )\n        (6): Sequential(\n          (0): ConvBnAct(\n            (conv): Conv2d(160, 960, kernel_size=(1, 1), stride=(1, 1), bias=False)\n            (bn1): BatchNorm2d(960, eps=1e-05, momentum=0.1, affine=True, track_running_stats=True)\n            (act1): HardSwishMe()\n          )\n        )\n      )\n      (global_pool): SelectAdaptivePool2d (pool_type=avg, flatten=False)\n      (conv_head): Conv2d(960, 1280, kernel_size=(1, 1), stride=(1, 1))\n      (act2): HardSwishMe()\n      (classifier): Linear(in_features=1280, out_features=512, bias=True)\n    )\n    (1): BatchNorm1d(512, eps=1e-05, momentum=0.1, affine=True, track_running_stats=True)\n    (2): ReLU()\n  )\n  (gender_head): Sequential(\n    (0): Dropout(p=0.2, inplace=False)\n    (1): Linear(in_features=512, out_features=1, bias=True)\n    (2): Sigmoid()\n  )\n  (age_head): Sequential(\n    (0): Linear(in_features=512, out_features=116, bias=True)\n  )\n)", "parameters": [], "output_shape": [[16, 116], [16, 1]], "num_parameters": []}, {"name": "module", "id": 140425428604144, "class_name": "Net(\n  (backbone): Sequential(\n    (0): MobileNetV3(\n      (conv_stem): Conv2d(3, 16, kernel_size=(3, 3), stride=(2, 2), padding=(1, 1), bias=False)\n      (bn1): BatchNorm2d(16, eps=1e-05, momentum=0.1, affine=True, track_running_stats=True)\n      (act1): HardSwishMe()\n      (blocks): Sequential(\n        (0): Sequential(\n          (0): DepthwiseSeparableConv(\n            (conv_dw): Conv2d(16, 16, kernel_size=(3, 3), stride=(1, 1), padding=(1, 1), groups=16, bias=False)\n            (bn1): BatchNorm2d(16, eps=1e-05, momentum=0.1, affine=True, track_running_stats=True)\n            (act1): ReLU(inplace=True)\n            (conv_pw): Conv2d(16, 16, kernel_size=(1, 1), stride=(1, 1), bias=False)\n            (bn2): BatchNorm2d(16, eps=1e-05, momentum=0.1, affine=True, track_running_stats=True)\n            (act2): Identity()\n          )\n        )\n        (1): Sequential(\n          (0): InvertedResidual(\n            (conv_pw): Conv2d(16, 64, kernel_size=(1, 1), stride=(1, 1), bias=False)\n            (bn1): BatchNorm2d(64, eps=1e-05, momentum=0.1, affine=True, track_running_stats=True)\n            (act1): ReLU(inplace=True)\n            (conv_dw): Conv2d(64, 64, kernel_size=(3, 3), stride=(2, 2), padding=(1, 1), groups=64, bias=False)\n            (bn2): BatchNorm2d(64, eps=1e-05, momentum=0.1, affine=True, track_running_stats=True)\n            (act2): ReLU(inplace=True)\n            (conv_pwl): Conv2d(64, 24, kernel_size=(1, 1), stride=(1, 1), bias=False)\n            (bn3): BatchNorm2d(24, eps=1e-05, momentum=0.1, affine=True, track_running_stats=True)\n          )\n          (1): InvertedResidual(\n            (conv_pw): Conv2d(24, 72, kernel_size=(1, 1), stride=(1, 1), bias=False)\n            (bn1): BatchNorm2d(72, eps=1e-05, momentum=0.1, affine=True, track_running_stats=True)\n            (act1): ReLU(inplace=True)\n            (conv_dw): Conv2d(72, 72, kernel_size=(3, 3), stride=(1, 1), padding=(1, 1), groups=72, bias=False)\n            (bn2): BatchNorm2d(72, eps=1e-05, momentum=0.1, affine=True, track_running_stats=True)\n            (act2): ReLU(inplace=True)\n            (conv_pwl): Conv2d(72, 24, kernel_size=(1, 1), stride=(1, 1), bias=False)\n            (bn3): BatchNorm2d(24, eps=1e-05, momentum=0.1, affine=True, track_running_stats=True)\n          )\n        )\n        (2): Sequential(\n          (0): InvertedResidual(\n            (conv_pw): Conv2d(24, 72, kernel_size=(1, 1), stride=(1, 1), bias=False)\n            (bn1): BatchNorm2d(72, eps=1e-05, momentum=0.1, affine=True, track_running_stats=True)\n            (act1): ReLU(inplace=True)\n            (conv_dw): Conv2d(72, 72, kernel_size=(5, 5), stride=(2, 2), padding=(2, 2), groups=72, bias=False)\n            (bn2): BatchNorm2d(72, eps=1e-05, momentum=0.1, affine=True, track_running_stats=True)\n            (act2): ReLU(inplace=True)\n            (se): SqueezeExcite(\n              (conv_reduce): Conv2d(72, 24, kernel_size=(1, 1), stride=(1, 1))\n              (act1): ReLU(inplace=True)\n              (conv_expand): Conv2d(24, 72, kernel_size=(1, 1), stride=(1, 1))\n            )\n            (conv_pwl): Conv2d(72, 40, kernel_size=(1, 1), stride=(1, 1), bias=False)\n            (bn3): BatchNorm2d(40, eps=1e-05, momentum=0.1, affine=True, track_running_stats=True)\n          )\n          (1): InvertedResidual(\n            (conv_pw): Conv2d(40, 120, kernel_size=(1, 1), stride=(1, 1), bias=False)\n            (bn1): BatchNorm2d(120, eps=1e-05, momentum=0.1, affine=True, track_running_stats=True)\n            (act1): ReLU(inplace=True)\n            (conv_dw): Conv2d(120, 120, kernel_size=(5, 5), stride=(1, 1), padding=(2, 2), groups=120, bias=False)\n            (bn2): BatchNorm2d(120, eps=1e-05, momentum=0.1, affine=True, track_running_stats=True)\n            (act2): ReLU(inplace=True)\n            (se): SqueezeExcite(\n              (conv_reduce): Conv2d(120, 32, kernel_size=(1, 1), stride=(1, 1))\n              (act1): ReLU(inplace=True)\n              (conv_expand): Conv2d(32, 120, kernel_size=(1, 1), stride=(1, 1))\n            )\n            (conv_pwl): Conv2d(120, 40, kernel_size=(1, 1), stride=(1, 1), bias=False)\n            (bn3): BatchNorm2d(40, eps=1e-05, momentum=0.1, affine=True, track_running_stats=True)\n          )\n          (2): InvertedResidual(\n            (conv_pw): Conv2d(40, 120, kernel_size=(1, 1), stride=(1, 1), bias=False)\n            (bn1): BatchNorm2d(120, eps=1e-05, momentum=0.1, affine=True, track_running_stats=True)\n            (act1): ReLU(inplace=True)\n            (conv_dw): Conv2d(120, 120, kernel_size=(5, 5), stride=(1, 1), padding=(2, 2), groups=120, bias=False)\n            (bn2): BatchNorm2d(120, eps=1e-05, momentum=0.1, affine=True, track_running_stats=True)\n            (act2): ReLU(inplace=True)\n            (se): SqueezeExcite(\n              (conv_reduce): Conv2d(120, 32, kernel_size=(1, 1), stride=(1, 1))\n              (act1): ReLU(inplace=True)\n              (conv_expand): Conv2d(32, 120, kernel_size=(1, 1), stride=(1, 1))\n            )\n            (conv_pwl): Conv2d(120, 40, kernel_size=(1, 1), stride=(1, 1), bias=False)\n            (bn3): BatchNorm2d(40, eps=1e-05, momentum=0.1, affine=True, track_running_stats=True)\n          )\n        )\n        (3): Sequential(\n          (0): InvertedResidual(\n            (conv_pw): Conv2d(40, 240, kernel_size=(1, 1), stride=(1, 1), bias=False)\n            (bn1): BatchNorm2d(240, eps=1e-05, momentum=0.1, affine=True, track_running_stats=True)\n            (act1): HardSwishMe()\n            (conv_dw): Conv2d(240, 240, kernel_size=(3, 3), stride=(2, 2), padding=(1, 1), groups=240, bias=False)\n            (bn2): BatchNorm2d(240, eps=1e-05, momentum=0.1, affine=True, track_running_stats=True)\n            (act2): HardSwishMe()\n            (conv_pwl): Conv2d(240, 80, kernel_size=(1, 1), stride=(1, 1), bias=False)\n            (bn3): BatchNorm2d(80, eps=1e-05, momentum=0.1, affine=True, track_running_stats=True)\n          )\n          (1): InvertedResidual(\n            (conv_pw): Conv2d(80, 200, kernel_size=(1, 1), stride=(1, 1), bias=False)\n            (bn1): BatchNorm2d(200, eps=1e-05, momentum=0.1, affine=True, track_running_stats=True)\n            (act1): HardSwishMe()\n            (conv_dw): Conv2d(200, 200, kernel_size=(3, 3), stride=(1, 1), padding=(1, 1), groups=200, bias=False)\n            (bn2): BatchNorm2d(200, eps=1e-05, momentum=0.1, affine=True, track_running_stats=True)\n            (act2): HardSwishMe()\n            (conv_pwl): Conv2d(200, 80, kernel_size=(1, 1), stride=(1, 1), bias=False)\n            (bn3): BatchNorm2d(80, eps=1e-05, momentum=0.1, affine=True, track_running_stats=True)\n          )\n          (2): InvertedResidual(\n            (conv_pw): Conv2d(80, 184, kernel_size=(1, 1), stride=(1, 1), bias=False)\n            (bn1): BatchNorm2d(184, eps=1e-05, momentum=0.1, affine=True, track_running_stats=True)\n            (act1): HardSwishMe()\n            (conv_dw): Conv2d(184, 184, kernel_size=(3, 3), stride=(1, 1), padding=(1, 1), groups=184, bias=False)\n            (bn2): BatchNorm2d(184, eps=1e-05, momentum=0.1, affine=True, track_running_stats=True)\n            (act2): HardSwishMe()\n            (conv_pwl): Conv2d(184, 80, kernel_size=(1, 1), stride=(1, 1), bias=False)\n            (bn3): BatchNorm2d(80, eps=1e-05, momentum=0.1, affine=True, track_running_stats=True)\n          )\n          (3): InvertedResidual(\n            (conv_pw): Conv2d(80, 184, kernel_size=(1, 1), stride=(1, 1), bias=False)\n            (bn1): BatchNorm2d(184, eps=1e-05, momentum=0.1, affine=True, track_running_stats=True)\n            (act1): HardSwishMe()\n            (conv_dw): Conv2d(184, 184, kernel_size=(3, 3), stride=(1, 1), padding=(1, 1), groups=184, bias=False)\n            (bn2): BatchNorm2d(184, eps=1e-05, momentum=0.1, affine=True, track_running_stats=True)\n            (act2): HardSwishMe()\n            (conv_pwl): Conv2d(184, 80, kernel_size=(1, 1), stride=(1, 1), bias=False)\n            (bn3): BatchNorm2d(80, eps=1e-05, momentum=0.1, affine=True, track_running_stats=True)\n          )\n        )\n        (4): Sequential(\n          (0): InvertedResidual(\n            (conv_pw): Conv2d(80, 480, kernel_size=(1, 1), stride=(1, 1), bias=False)\n            (bn1): BatchNorm2d(480, eps=1e-05, momentum=0.1, affine=True, track_running_stats=True)\n            (act1): HardSwishMe()\n            (conv_dw): Conv2d(480, 480, kernel_size=(3, 3), stride=(1, 1), padding=(1, 1), groups=480, bias=False)\n            (bn2): BatchNorm2d(480, eps=1e-05, momentum=0.1, affine=True, track_running_stats=True)\n            (act2): HardSwishMe()\n            (se): SqueezeExcite(\n              (conv_reduce): Conv2d(480, 120, kernel_size=(1, 1), stride=(1, 1))\n              (act1): ReLU(inplace=True)\n              (conv_expand): Conv2d(120, 480, kernel_size=(1, 1), stride=(1, 1))\n            )\n            (conv_pwl): Conv2d(480, 112, kernel_size=(1, 1), stride=(1, 1), bias=False)\n            (bn3): BatchNorm2d(112, eps=1e-05, momentum=0.1, affine=True, track_running_stats=True)\n          )\n          (1): InvertedResidual(\n            (conv_pw): Conv2d(112, 672, kernel_size=(1, 1), stride=(1, 1), bias=False)\n            (bn1): BatchNorm2d(672, eps=1e-05, momentum=0.1, affine=True, track_running_stats=True)\n            (act1): HardSwishMe()\n            (conv_dw): Conv2d(672, 672, kernel_size=(3, 3), stride=(1, 1), padding=(1, 1), groups=672, bias=False)\n            (bn2): BatchNorm2d(672, eps=1e-05, momentum=0.1, affine=True, track_running_stats=True)\n            (act2): HardSwishMe()\n            (se): SqueezeExcite(\n              (conv_reduce): Conv2d(672, 168, kernel_size=(1, 1), stride=(1, 1))\n              (act1): ReLU(inplace=True)\n              (conv_expand): Conv2d(168, 672, kernel_size=(1, 1), stride=(1, 1))\n            )\n            (conv_pwl): Conv2d(672, 112, kernel_size=(1, 1), stride=(1, 1), bias=False)\n            (bn3): BatchNorm2d(112, eps=1e-05, momentum=0.1, affine=True, track_running_stats=True)\n          )\n        )\n        (5): Sequential(\n          (0): InvertedResidual(\n            (conv_pw): Conv2d(112, 672, kernel_size=(1, 1), stride=(1, 1), bias=False)\n            (bn1): BatchNorm2d(672, eps=1e-05, momentum=0.1, affine=True, track_running_stats=True)\n            (act1): HardSwishMe()\n            (conv_dw): Conv2d(672, 672, kernel_size=(5, 5), stride=(2, 2), padding=(2, 2), groups=672, bias=False)\n            (bn2): BatchNorm2d(672, eps=1e-05, momentum=0.1, affine=True, track_running_stats=True)\n            (act2): HardSwishMe()\n            (se): SqueezeExcite(\n              (conv_reduce): Conv2d(672, 168, kernel_size=(1, 1), stride=(1, 1))\n              (act1): ReLU(inplace=True)\n              (conv_expand): Conv2d(168, 672, kernel_size=(1, 1), stride=(1, 1))\n            )\n            (conv_pwl): Conv2d(672, 160, kernel_size=(1, 1), stride=(1, 1), bias=False)\n            (bn3): BatchNorm2d(160, eps=1e-05, momentum=0.1, affine=True, track_running_stats=True)\n          )\n          (1): InvertedResidual(\n            (conv_pw): Conv2d(160, 960, kernel_size=(1, 1), stride=(1, 1), bias=False)\n            (bn1): BatchNorm2d(960, eps=1e-05, momentum=0.1, affine=True, track_running_stats=True)\n            (act1): HardSwishMe()\n            (conv_dw): Conv2d(960, 960, kernel_size=(5, 5), stride=(1, 1), padding=(2, 2), groups=960, bias=False)\n            (bn2): BatchNorm2d(960, eps=1e-05, momentum=0.1, affine=True, track_running_stats=True)\n            (act2): HardSwishMe()\n            (se): SqueezeExcite(\n              (conv_reduce): Conv2d(960, 240, kernel_size=(1, 1), stride=(1, 1))\n              (act1): ReLU(inplace=True)\n              (conv_expand): Conv2d(240, 960, kernel_size=(1, 1), stride=(1, 1))\n            )\n            (conv_pwl): Conv2d(960, 160, kernel_size=(1, 1), stride=(1, 1), bias=False)\n            (bn3): BatchNorm2d(160, eps=1e-05, momentum=0.1, affine=True, track_running_stats=True)\n          )\n          (2): InvertedResidual(\n            (conv_pw): Conv2d(160, 960, kernel_size=(1, 1), stride=(1, 1), bias=False)\n            (bn1): BatchNorm2d(960, eps=1e-05, momentum=0.1, affine=True, track_running_stats=True)\n            (act1): HardSwishMe()\n            (conv_dw): Conv2d(960, 960, kernel_size=(5, 5), stride=(1, 1), padding=(2, 2), groups=960, bias=False)\n            (bn2): BatchNorm2d(960, eps=1e-05, momentum=0.1, affine=True, track_running_stats=True)\n            (act2): HardSwishMe()\n            (se): SqueezeExcite(\n              (conv_reduce): Conv2d(960, 240, kernel_size=(1, 1), stride=(1, 1))\n              (act1): ReLU(inplace=True)\n              (conv_expand): Conv2d(240, 960, kernel_size=(1, 1), stride=(1, 1))\n            )\n            (conv_pwl): Conv2d(960, 160, kernel_size=(1, 1), stride=(1, 1), bias=False)\n            (bn3): BatchNorm2d(160, eps=1e-05, momentum=0.1, affine=True, track_running_stats=True)\n          )\n        )\n        (6): Sequential(\n          (0): ConvBnAct(\n            (conv): Conv2d(160, 960, kernel_size=(1, 1), stride=(1, 1), bias=False)\n            (bn1): BatchNorm2d(960, eps=1e-05, momentum=0.1, affine=True, track_running_stats=True)\n            (act1): HardSwishMe()\n          )\n        )\n      )\n      (global_pool): SelectAdaptivePool2d (pool_type=avg, flatten=False)\n      (conv_head): Conv2d(960, 1280, kernel_size=(1, 1), stride=(1, 1))\n      (act2): HardSwishMe()\n      (classifier): Linear(in_features=1280, out_features=512, bias=True)\n    )\n    (1): BatchNorm1d(512, eps=1e-05, momentum=0.1, affine=True, track_running_stats=True)\n    (2): ReLU()\n  )\n  (gender_head): Sequential(\n    (0): Dropout(p=0.2, inplace=False)\n    (1): Linear(in_features=512, out_features=1, bias=True)\n    (2): Sigmoid()\n  )\n  (age_head): Sequential(\n    (0): Linear(in_features=512, out_features=116, bias=True)\n  )\n)", "parameters": [], "output_shape": [[16, 116], [16, 1]], "num_parameters": []}, {"name": "module", "id": 140425412576112, "class_name": "Net(\n  (backbone): Sequential(\n    (0): MobileNetV3(\n      (conv_stem): Conv2d(3, 16, kernel_size=(3, 3), stride=(2, 2), padding=(1, 1), bias=False)\n      (bn1): BatchNorm2d(16, eps=1e-05, momentum=0.1, affine=True, track_running_stats=True)\n      (act1): HardSwishMe()\n      (blocks): Sequential(\n        (0): Sequential(\n          (0): DepthwiseSeparableConv(\n            (conv_dw): Conv2d(16, 16, kernel_size=(3, 3), stride=(1, 1), padding=(1, 1), groups=16, bias=False)\n            (bn1): BatchNorm2d(16, eps=1e-05, momentum=0.1, affine=True, track_running_stats=True)\n            (act1): ReLU(inplace=True)\n            (conv_pw): Conv2d(16, 16, kernel_size=(1, 1), stride=(1, 1), bias=False)\n            (bn2): BatchNorm2d(16, eps=1e-05, momentum=0.1, affine=True, track_running_stats=True)\n            (act2): Identity()\n          )\n        )\n        (1): Sequential(\n          (0): InvertedResidual(\n            (conv_pw): Conv2d(16, 64, kernel_size=(1, 1), stride=(1, 1), bias=False)\n            (bn1): BatchNorm2d(64, eps=1e-05, momentum=0.1, affine=True, track_running_stats=True)\n            (act1): ReLU(inplace=True)\n            (conv_dw): Conv2d(64, 64, kernel_size=(3, 3), stride=(2, 2), padding=(1, 1), groups=64, bias=False)\n            (bn2): BatchNorm2d(64, eps=1e-05, momentum=0.1, affine=True, track_running_stats=True)\n            (act2): ReLU(inplace=True)\n            (conv_pwl): Conv2d(64, 24, kernel_size=(1, 1), stride=(1, 1), bias=False)\n            (bn3): BatchNorm2d(24, eps=1e-05, momentum=0.1, affine=True, track_running_stats=True)\n          )\n          (1): InvertedResidual(\n            (conv_pw): Conv2d(24, 72, kernel_size=(1, 1), stride=(1, 1), bias=False)\n            (bn1): BatchNorm2d(72, eps=1e-05, momentum=0.1, affine=True, track_running_stats=True)\n            (act1): ReLU(inplace=True)\n            (conv_dw): Conv2d(72, 72, kernel_size=(3, 3), stride=(1, 1), padding=(1, 1), groups=72, bias=False)\n            (bn2): BatchNorm2d(72, eps=1e-05, momentum=0.1, affine=True, track_running_stats=True)\n            (act2): ReLU(inplace=True)\n            (conv_pwl): Conv2d(72, 24, kernel_size=(1, 1), stride=(1, 1), bias=False)\n            (bn3): BatchNorm2d(24, eps=1e-05, momentum=0.1, affine=True, track_running_stats=True)\n          )\n        )\n        (2): Sequential(\n          (0): InvertedResidual(\n            (conv_pw): Conv2d(24, 72, kernel_size=(1, 1), stride=(1, 1), bias=False)\n            (bn1): BatchNorm2d(72, eps=1e-05, momentum=0.1, affine=True, track_running_stats=True)\n            (act1): ReLU(inplace=True)\n            (conv_dw): Conv2d(72, 72, kernel_size=(5, 5), stride=(2, 2), padding=(2, 2), groups=72, bias=False)\n            (bn2): BatchNorm2d(72, eps=1e-05, momentum=0.1, affine=True, track_running_stats=True)\n            (act2): ReLU(inplace=True)\n            (se): SqueezeExcite(\n              (conv_reduce): Conv2d(72, 24, kernel_size=(1, 1), stride=(1, 1))\n              (act1): ReLU(inplace=True)\n              (conv_expand): Conv2d(24, 72, kernel_size=(1, 1), stride=(1, 1))\n            )\n            (conv_pwl): Conv2d(72, 40, kernel_size=(1, 1), stride=(1, 1), bias=False)\n            (bn3): BatchNorm2d(40, eps=1e-05, momentum=0.1, affine=True, track_running_stats=True)\n          )\n          (1): InvertedResidual(\n            (conv_pw): Conv2d(40, 120, kernel_size=(1, 1), stride=(1, 1), bias=False)\n            (bn1): BatchNorm2d(120, eps=1e-05, momentum=0.1, affine=True, track_running_stats=True)\n            (act1): ReLU(inplace=True)\n            (conv_dw): Conv2d(120, 120, kernel_size=(5, 5), stride=(1, 1), padding=(2, 2), groups=120, bias=False)\n            (bn2): BatchNorm2d(120, eps=1e-05, momentum=0.1, affine=True, track_running_stats=True)\n            (act2): ReLU(inplace=True)\n            (se): SqueezeExcite(\n              (conv_reduce): Conv2d(120, 32, kernel_size=(1, 1), stride=(1, 1))\n              (act1): ReLU(inplace=True)\n              (conv_expand): Conv2d(32, 120, kernel_size=(1, 1), stride=(1, 1))\n            )\n            (conv_pwl): Conv2d(120, 40, kernel_size=(1, 1), stride=(1, 1), bias=False)\n            (bn3): BatchNorm2d(40, eps=1e-05, momentum=0.1, affine=True, track_running_stats=True)\n          )\n          (2): InvertedResidual(\n            (conv_pw): Conv2d(40, 120, kernel_size=(1, 1), stride=(1, 1), bias=False)\n            (bn1): BatchNorm2d(120, eps=1e-05, momentum=0.1, affine=True, track_running_stats=True)\n            (act1): ReLU(inplace=True)\n            (conv_dw): Conv2d(120, 120, kernel_size=(5, 5), stride=(1, 1), padding=(2, 2), groups=120, bias=False)\n            (bn2): BatchNorm2d(120, eps=1e-05, momentum=0.1, affine=True, track_running_stats=True)\n            (act2): ReLU(inplace=True)\n            (se): SqueezeExcite(\n              (conv_reduce): Conv2d(120, 32, kernel_size=(1, 1), stride=(1, 1))\n              (act1): ReLU(inplace=True)\n              (conv_expand): Conv2d(32, 120, kernel_size=(1, 1), stride=(1, 1))\n            )\n            (conv_pwl): Conv2d(120, 40, kernel_size=(1, 1), stride=(1, 1), bias=False)\n            (bn3): BatchNorm2d(40, eps=1e-05, momentum=0.1, affine=True, track_running_stats=True)\n          )\n        )\n        (3): Sequential(\n          (0): InvertedResidual(\n            (conv_pw): Conv2d(40, 240, kernel_size=(1, 1), stride=(1, 1), bias=False)\n            (bn1): BatchNorm2d(240, eps=1e-05, momentum=0.1, affine=True, track_running_stats=True)\n            (act1): HardSwishMe()\n            (conv_dw): Conv2d(240, 240, kernel_size=(3, 3), stride=(2, 2), padding=(1, 1), groups=240, bias=False)\n            (bn2): BatchNorm2d(240, eps=1e-05, momentum=0.1, affine=True, track_running_stats=True)\n            (act2): HardSwishMe()\n            (conv_pwl): Conv2d(240, 80, kernel_size=(1, 1), stride=(1, 1), bias=False)\n            (bn3): BatchNorm2d(80, eps=1e-05, momentum=0.1, affine=True, track_running_stats=True)\n          )\n          (1): InvertedResidual(\n            (conv_pw): Conv2d(80, 200, kernel_size=(1, 1), stride=(1, 1), bias=False)\n            (bn1): BatchNorm2d(200, eps=1e-05, momentum=0.1, affine=True, track_running_stats=True)\n            (act1): HardSwishMe()\n            (conv_dw): Conv2d(200, 200, kernel_size=(3, 3), stride=(1, 1), padding=(1, 1), groups=200, bias=False)\n            (bn2): BatchNorm2d(200, eps=1e-05, momentum=0.1, affine=True, track_running_stats=True)\n            (act2): HardSwishMe()\n            (conv_pwl): Conv2d(200, 80, kernel_size=(1, 1), stride=(1, 1), bias=False)\n            (bn3): BatchNorm2d(80, eps=1e-05, momentum=0.1, affine=True, track_running_stats=True)\n          )\n          (2): InvertedResidual(\n            (conv_pw): Conv2d(80, 184, kernel_size=(1, 1), stride=(1, 1), bias=False)\n            (bn1): BatchNorm2d(184, eps=1e-05, momentum=0.1, affine=True, track_running_stats=True)\n            (act1): HardSwishMe()\n            (conv_dw): Conv2d(184, 184, kernel_size=(3, 3), stride=(1, 1), padding=(1, 1), groups=184, bias=False)\n            (bn2): BatchNorm2d(184, eps=1e-05, momentum=0.1, affine=True, track_running_stats=True)\n            (act2): HardSwishMe()\n            (conv_pwl): Conv2d(184, 80, kernel_size=(1, 1), stride=(1, 1), bias=False)\n            (bn3): BatchNorm2d(80, eps=1e-05, momentum=0.1, affine=True, track_running_stats=True)\n          )\n          (3): InvertedResidual(\n            (conv_pw): Conv2d(80, 184, kernel_size=(1, 1), stride=(1, 1), bias=False)\n            (bn1): BatchNorm2d(184, eps=1e-05, momentum=0.1, affine=True, track_running_stats=True)\n            (act1): HardSwishMe()\n            (conv_dw): Conv2d(184, 184, kernel_size=(3, 3), stride=(1, 1), padding=(1, 1), groups=184, bias=False)\n            (bn2): BatchNorm2d(184, eps=1e-05, momentum=0.1, affine=True, track_running_stats=True)\n            (act2): HardSwishMe()\n            (conv_pwl): Conv2d(184, 80, kernel_size=(1, 1), stride=(1, 1), bias=False)\n            (bn3): BatchNorm2d(80, eps=1e-05, momentum=0.1, affine=True, track_running_stats=True)\n          )\n        )\n        (4): Sequential(\n          (0): InvertedResidual(\n            (conv_pw): Conv2d(80, 480, kernel_size=(1, 1), stride=(1, 1), bias=False)\n            (bn1): BatchNorm2d(480, eps=1e-05, momentum=0.1, affine=True, track_running_stats=True)\n            (act1): HardSwishMe()\n            (conv_dw): Conv2d(480, 480, kernel_size=(3, 3), stride=(1, 1), padding=(1, 1), groups=480, bias=False)\n            (bn2): BatchNorm2d(480, eps=1e-05, momentum=0.1, affine=True, track_running_stats=True)\n            (act2): HardSwishMe()\n            (se): SqueezeExcite(\n              (conv_reduce): Conv2d(480, 120, kernel_size=(1, 1), stride=(1, 1))\n              (act1): ReLU(inplace=True)\n              (conv_expand): Conv2d(120, 480, kernel_size=(1, 1), stride=(1, 1))\n            )\n            (conv_pwl): Conv2d(480, 112, kernel_size=(1, 1), stride=(1, 1), bias=False)\n            (bn3): BatchNorm2d(112, eps=1e-05, momentum=0.1, affine=True, track_running_stats=True)\n          )\n          (1): InvertedResidual(\n            (conv_pw): Conv2d(112, 672, kernel_size=(1, 1), stride=(1, 1), bias=False)\n            (bn1): BatchNorm2d(672, eps=1e-05, momentum=0.1, affine=True, track_running_stats=True)\n            (act1): HardSwishMe()\n            (conv_dw): Conv2d(672, 672, kernel_size=(3, 3), stride=(1, 1), padding=(1, 1), groups=672, bias=False)\n            (bn2): BatchNorm2d(672, eps=1e-05, momentum=0.1, affine=True, track_running_stats=True)\n            (act2): HardSwishMe()\n            (se): SqueezeExcite(\n              (conv_reduce): Conv2d(672, 168, kernel_size=(1, 1), stride=(1, 1))\n              (act1): ReLU(inplace=True)\n              (conv_expand): Conv2d(168, 672, kernel_size=(1, 1), stride=(1, 1))\n            )\n            (conv_pwl): Conv2d(672, 112, kernel_size=(1, 1), stride=(1, 1), bias=False)\n            (bn3): BatchNorm2d(112, eps=1e-05, momentum=0.1, affine=True, track_running_stats=True)\n          )\n        )\n        (5): Sequential(\n          (0): InvertedResidual(\n            (conv_pw): Conv2d(112, 672, kernel_size=(1, 1), stride=(1, 1), bias=False)\n            (bn1): BatchNorm2d(672, eps=1e-05, momentum=0.1, affine=True, track_running_stats=True)\n            (act1): HardSwishMe()\n            (conv_dw): Conv2d(672, 672, kernel_size=(5, 5), stride=(2, 2), padding=(2, 2), groups=672, bias=False)\n            (bn2): BatchNorm2d(672, eps=1e-05, momentum=0.1, affine=True, track_running_stats=True)\n            (act2): HardSwishMe()\n            (se): SqueezeExcite(\n              (conv_reduce): Conv2d(672, 168, kernel_size=(1, 1), stride=(1, 1))\n              (act1): ReLU(inplace=True)\n              (conv_expand): Conv2d(168, 672, kernel_size=(1, 1), stride=(1, 1))\n            )\n            (conv_pwl): Conv2d(672, 160, kernel_size=(1, 1), stride=(1, 1), bias=False)\n            (bn3): BatchNorm2d(160, eps=1e-05, momentum=0.1, affine=True, track_running_stats=True)\n          )\n          (1): InvertedResidual(\n            (conv_pw): Conv2d(160, 960, kernel_size=(1, 1), stride=(1, 1), bias=False)\n            (bn1): BatchNorm2d(960, eps=1e-05, momentum=0.1, affine=True, track_running_stats=True)\n            (act1): HardSwishMe()\n            (conv_dw): Conv2d(960, 960, kernel_size=(5, 5), stride=(1, 1), padding=(2, 2), groups=960, bias=False)\n            (bn2): BatchNorm2d(960, eps=1e-05, momentum=0.1, affine=True, track_running_stats=True)\n            (act2): HardSwishMe()\n            (se): SqueezeExcite(\n              (conv_reduce): Conv2d(960, 240, kernel_size=(1, 1), stride=(1, 1))\n              (act1): ReLU(inplace=True)\n              (conv_expand): Conv2d(240, 960, kernel_size=(1, 1), stride=(1, 1))\n            )\n            (conv_pwl): Conv2d(960, 160, kernel_size=(1, 1), stride=(1, 1), bias=False)\n            (bn3): BatchNorm2d(160, eps=1e-05, momentum=0.1, affine=True, track_running_stats=True)\n          )\n          (2): InvertedResidual(\n            (conv_pw): Conv2d(160, 960, kernel_size=(1, 1), stride=(1, 1), bias=False)\n            (bn1): BatchNorm2d(960, eps=1e-05, momentum=0.1, affine=True, track_running_stats=True)\n            (act1): HardSwishMe()\n            (conv_dw): Conv2d(960, 960, kernel_size=(5, 5), stride=(1, 1), padding=(2, 2), groups=960, bias=False)\n            (bn2): BatchNorm2d(960, eps=1e-05, momentum=0.1, affine=True, track_running_stats=True)\n            (act2): HardSwishMe()\n            (se): SqueezeExcite(\n              (conv_reduce): Conv2d(960, 240, kernel_size=(1, 1), stride=(1, 1))\n              (act1): ReLU(inplace=True)\n              (conv_expand): Conv2d(240, 960, kernel_size=(1, 1), stride=(1, 1))\n            )\n            (conv_pwl): Conv2d(960, 160, kernel_size=(1, 1), stride=(1, 1), bias=False)\n            (bn3): BatchNorm2d(160, eps=1e-05, momentum=0.1, affine=True, track_running_stats=True)\n          )\n        )\n        (6): Sequential(\n          (0): ConvBnAct(\n            (conv): Conv2d(160, 960, kernel_size=(1, 1), stride=(1, 1), bias=False)\n            (bn1): BatchNorm2d(960, eps=1e-05, momentum=0.1, affine=True, track_running_stats=True)\n            (act1): HardSwishMe()\n          )\n        )\n      )\n      (global_pool): SelectAdaptivePool2d (pool_type=avg, flatten=False)\n      (conv_head): Conv2d(960, 1280, kernel_size=(1, 1), stride=(1, 1))\n      (act2): HardSwishMe()\n      (classifier): Linear(in_features=1280, out_features=512, bias=True)\n    )\n    (1): BatchNorm1d(512, eps=1e-05, momentum=0.1, affine=True, track_running_stats=True)\n    (2): ReLU()\n  )\n  (gender_head): Sequential(\n    (0): Dropout(p=0.2, inplace=False)\n    (1): Linear(in_features=512, out_features=1, bias=True)\n    (2): Sigmoid()\n  )\n  (age_head): Sequential(\n    (0): Linear(in_features=512, out_features=116, bias=True)\n  )\n)", "parameters": [], "output_shape": [[16, 116], [16, 1]], "num_parameters": []}], "edges": []}